Model,type,Dataset,Epoch,criterion,optimizer,scheduler,Train_loss,Train_acc,val_loss,Val_acc,time,Elasttime
"Sequential(
  (0): Conv2d(1, 6, kernel_size=(5, 5), stride=(1, 1), padding=(2, 2))
  (1): ReLU()
  (2): AvgPool2d(kernel_size=2, stride=2, padding=0)
  (3): Conv2d(6, 16, kernel_size=(5, 5), stride=(1, 1))
  (4): ReLU()
  (5): AvgPool2d(kernel_size=2, stride=2, padding=0)
  (6): Flatten(start_dim=1, end_dim=-1)
  (7): Linear(in_features=400, out_features=120, bias=True)
  (8): ReLU()
  (9): Linear(in_features=120, out_features=84, bias=True)
  (10): ReLU()
  (11): Linear(in_features=84, out_features=10, bias=True)
)",pytorch,mnist,0/49,CrossEntropyLoss(),"SGD (
Parameter Group 0
    dampening: 0
    initial_lr: 0.1
    lr: 0.1
    momentum: 0.9
    nesterov: False
    weight_decay: 0
)",<torch.optim.lr_scheduler.StepLR object at 0x7f93b2105ee0>,0.5243,0.8282,0.0953,0.9724,1635737078,0m 10s
"Sequential(
  (0): Conv2d(1, 6, kernel_size=(5, 5), stride=(1, 1), padding=(2, 2))
  (1): ReLU()
  (2): AvgPool2d(kernel_size=2, stride=2, padding=0)
  (3): Conv2d(6, 16, kernel_size=(5, 5), stride=(1, 1))
  (4): ReLU()
  (5): AvgPool2d(kernel_size=2, stride=2, padding=0)
  (6): Flatten(start_dim=1, end_dim=-1)
  (7): Linear(in_features=400, out_features=120, bias=True)
  (8): ReLU()
  (9): Linear(in_features=120, out_features=84, bias=True)
  (10): ReLU()
  (11): Linear(in_features=84, out_features=10, bias=True)
)",pytorch,mnist,1/49,CrossEntropyLoss(),"SGD (
Parameter Group 0
    dampening: 0
    initial_lr: 0.1
    lr: 0.1
    momentum: 0.9
    nesterov: False
    weight_decay: 0
)",<torch.optim.lr_scheduler.StepLR object at 0x7f93b2105ee0>,0.0928,0.9725,0.0699,0.9783,1635737088,0m 10s
"Sequential(
  (0): Conv2d(1, 6, kernel_size=(5, 5), stride=(1, 1), padding=(2, 2))
  (1): ReLU()
  (2): AvgPool2d(kernel_size=2, stride=2, padding=0)
  (3): Conv2d(6, 16, kernel_size=(5, 5), stride=(1, 1))
  (4): ReLU()
  (5): AvgPool2d(kernel_size=2, stride=2, padding=0)
  (6): Flatten(start_dim=1, end_dim=-1)
  (7): Linear(in_features=400, out_features=120, bias=True)
  (8): ReLU()
  (9): Linear(in_features=120, out_features=84, bias=True)
  (10): ReLU()
  (11): Linear(in_features=84, out_features=10, bias=True)
)",pytorch,mnist,2/49,CrossEntropyLoss(),"SGD (
Parameter Group 0
    dampening: 0
    initial_lr: 0.1
    lr: 0.1
    momentum: 0.9
    nesterov: False
    weight_decay: 0
)",<torch.optim.lr_scheduler.StepLR object at 0x7f93b2105ee0>,0.0655,0.9808,0.0717,0.9795,1635737098,0m 10s
"Sequential(
  (0): Conv2d(1, 6, kernel_size=(5, 5), stride=(1, 1), padding=(2, 2))
  (1): ReLU()
  (2): AvgPool2d(kernel_size=2, stride=2, padding=0)
  (3): Conv2d(6, 16, kernel_size=(5, 5), stride=(1, 1))
  (4): ReLU()
  (5): AvgPool2d(kernel_size=2, stride=2, padding=0)
  (6): Flatten(start_dim=1, end_dim=-1)
  (7): Linear(in_features=400, out_features=120, bias=True)
  (8): ReLU()
  (9): Linear(in_features=120, out_features=84, bias=True)
  (10): ReLU()
  (11): Linear(in_features=84, out_features=10, bias=True)
)",pytorch,mnist,3/49,CrossEntropyLoss(),"SGD (
Parameter Group 0
    dampening: 0
    initial_lr: 0.1
    lr: 0.1
    momentum: 0.9
    nesterov: False
    weight_decay: 0
)",<torch.optim.lr_scheduler.StepLR object at 0x7f93b2105ee0>,0.0542,0.9836,0.0706,0.9783,1635737108,0m 10s
"Sequential(
  (0): Conv2d(1, 6, kernel_size=(5, 5), stride=(1, 1), padding=(2, 2))
  (1): ReLU()
  (2): AvgPool2d(kernel_size=2, stride=2, padding=0)
  (3): Conv2d(6, 16, kernel_size=(5, 5), stride=(1, 1))
  (4): ReLU()
  (5): AvgPool2d(kernel_size=2, stride=2, padding=0)
  (6): Flatten(start_dim=1, end_dim=-1)
  (7): Linear(in_features=400, out_features=120, bias=True)
  (8): ReLU()
  (9): Linear(in_features=120, out_features=84, bias=True)
  (10): ReLU()
  (11): Linear(in_features=84, out_features=10, bias=True)
)",pytorch,mnist,4/49,CrossEntropyLoss(),"SGD (
Parameter Group 0
    dampening: 0
    initial_lr: 0.1
    lr: 0.1
    momentum: 0.9
    nesterov: False
    weight_decay: 0
)",<torch.optim.lr_scheduler.StepLR object at 0x7f93b2105ee0>,0.0451,0.9864,0.0671,0.98,1635737118,0m 10s
"Sequential(
  (0): Conv2d(1, 6, kernel_size=(5, 5), stride=(1, 1), padding=(2, 2))
  (1): ReLU()
  (2): AvgPool2d(kernel_size=2, stride=2, padding=0)
  (3): Conv2d(6, 16, kernel_size=(5, 5), stride=(1, 1))
  (4): ReLU()
  (5): AvgPool2d(kernel_size=2, stride=2, padding=0)
  (6): Flatten(start_dim=1, end_dim=-1)
  (7): Linear(in_features=400, out_features=120, bias=True)
  (8): ReLU()
  (9): Linear(in_features=120, out_features=84, bias=True)
  (10): ReLU()
  (11): Linear(in_features=84, out_features=10, bias=True)
)",pytorch,mnist,5/49,CrossEntropyLoss(),"SGD (
Parameter Group 0
    dampening: 0
    initial_lr: 0.1
    lr: 0.1
    momentum: 0.9
    nesterov: False
    weight_decay: 0
)",<torch.optim.lr_scheduler.StepLR object at 0x7f93b2105ee0>,0.0393,0.9884,0.0581,0.983,1635737128,0m 10s
"Sequential(
  (0): Conv2d(1, 6, kernel_size=(5, 5), stride=(1, 1), padding=(2, 2))
  (1): ReLU()
  (2): AvgPool2d(kernel_size=2, stride=2, padding=0)
  (3): Conv2d(6, 16, kernel_size=(5, 5), stride=(1, 1))
  (4): ReLU()
  (5): AvgPool2d(kernel_size=2, stride=2, padding=0)
  (6): Flatten(start_dim=1, end_dim=-1)
  (7): Linear(in_features=400, out_features=120, bias=True)
  (8): ReLU()
  (9): Linear(in_features=120, out_features=84, bias=True)
  (10): ReLU()
  (11): Linear(in_features=84, out_features=10, bias=True)
)",pytorch,mnist,6/49,CrossEntropyLoss(),"SGD (
Parameter Group 0
    dampening: 0
    initial_lr: 0.1
    lr: 0.010000000000000002
    momentum: 0.9
    nesterov: False
    weight_decay: 0
)",<torch.optim.lr_scheduler.StepLR object at 0x7f93b2105ee0>,0.0315,0.9904,0.0697,0.98,1635737139,0m 10s
"Sequential(
  (0): Conv2d(1, 6, kernel_size=(5, 5), stride=(1, 1), padding=(2, 2))
  (1): ReLU()
  (2): AvgPool2d(kernel_size=2, stride=2, padding=0)
  (3): Conv2d(6, 16, kernel_size=(5, 5), stride=(1, 1))
  (4): ReLU()
  (5): AvgPool2d(kernel_size=2, stride=2, padding=0)
  (6): Flatten(start_dim=1, end_dim=-1)
  (7): Linear(in_features=400, out_features=120, bias=True)
  (8): ReLU()
  (9): Linear(in_features=120, out_features=84, bias=True)
  (10): ReLU()
  (11): Linear(in_features=84, out_features=10, bias=True)
)",pytorch,mnist,7/49,CrossEntropyLoss(),"SGD (
Parameter Group 0
    dampening: 0
    initial_lr: 0.1
    lr: 0.010000000000000002
    momentum: 0.9
    nesterov: False
    weight_decay: 0
)",<torch.optim.lr_scheduler.StepLR object at 0x7f93b2105ee0>,0.0199,0.9937,0.034,0.9901,1635737149,0m 10s
"Sequential(
  (0): Conv2d(1, 6, kernel_size=(5, 5), stride=(1, 1), padding=(2, 2))
  (1): ReLU()
  (2): AvgPool2d(kernel_size=2, stride=2, padding=0)
  (3): Conv2d(6, 16, kernel_size=(5, 5), stride=(1, 1))
  (4): ReLU()
  (5): AvgPool2d(kernel_size=2, stride=2, padding=0)
  (6): Flatten(start_dim=1, end_dim=-1)
  (7): Linear(in_features=400, out_features=120, bias=True)
  (8): ReLU()
  (9): Linear(in_features=120, out_features=84, bias=True)
  (10): ReLU()
  (11): Linear(in_features=84, out_features=10, bias=True)
)",pytorch,mnist,8/49,CrossEntropyLoss(),"SGD (
Parameter Group 0
    dampening: 0
    initial_lr: 0.1
    lr: 0.010000000000000002
    momentum: 0.9
    nesterov: False
    weight_decay: 0
)",<torch.optim.lr_scheduler.StepLR object at 0x7f93b2105ee0>,0.0138,0.9955,0.0337,0.9903,1635737159,0m 10s
"Sequential(
  (0): Conv2d(1, 6, kernel_size=(5, 5), stride=(1, 1), padding=(2, 2))
  (1): ReLU()
  (2): AvgPool2d(kernel_size=2, stride=2, padding=0)
  (3): Conv2d(6, 16, kernel_size=(5, 5), stride=(1, 1))
  (4): ReLU()
  (5): AvgPool2d(kernel_size=2, stride=2, padding=0)
  (6): Flatten(start_dim=1, end_dim=-1)
  (7): Linear(in_features=400, out_features=120, bias=True)
  (8): ReLU()
  (9): Linear(in_features=120, out_features=84, bias=True)
  (10): ReLU()
  (11): Linear(in_features=84, out_features=10, bias=True)
)",pytorch,mnist,9/49,CrossEntropyLoss(),"SGD (
Parameter Group 0
    dampening: 0
    initial_lr: 0.1
    lr: 0.010000000000000002
    momentum: 0.9
    nesterov: False
    weight_decay: 0
)",<torch.optim.lr_scheduler.StepLR object at 0x7f93b2105ee0>,0.0119,0.9962,0.0341,0.9902,1635737169,0m 10s
"Sequential(
  (0): Conv2d(1, 6, kernel_size=(5, 5), stride=(1, 1), padding=(2, 2))
  (1): ReLU()
  (2): AvgPool2d(kernel_size=2, stride=2, padding=0)
  (3): Conv2d(6, 16, kernel_size=(5, 5), stride=(1, 1))
  (4): ReLU()
  (5): AvgPool2d(kernel_size=2, stride=2, padding=0)
  (6): Flatten(start_dim=1, end_dim=-1)
  (7): Linear(in_features=400, out_features=120, bias=True)
  (8): ReLU()
  (9): Linear(in_features=120, out_features=84, bias=True)
  (10): ReLU()
  (11): Linear(in_features=84, out_features=10, bias=True)
)",pytorch,mnist,10/49,CrossEntropyLoss(),"SGD (
Parameter Group 0
    dampening: 0
    initial_lr: 0.1
    lr: 0.010000000000000002
    momentum: 0.9
    nesterov: False
    weight_decay: 0
)",<torch.optim.lr_scheduler.StepLR object at 0x7f93b2105ee0>,0.0107,0.9967,0.0345,0.9903,1635737179,0m 10s
"Sequential(
  (0): Conv2d(1, 6, kernel_size=(5, 5), stride=(1, 1), padding=(2, 2))
  (1): ReLU()
  (2): AvgPool2d(kernel_size=2, stride=2, padding=0)
  (3): Conv2d(6, 16, kernel_size=(5, 5), stride=(1, 1))
  (4): ReLU()
  (5): AvgPool2d(kernel_size=2, stride=2, padding=0)
  (6): Flatten(start_dim=1, end_dim=-1)
  (7): Linear(in_features=400, out_features=120, bias=True)
  (8): ReLU()
  (9): Linear(in_features=120, out_features=84, bias=True)
  (10): ReLU()
  (11): Linear(in_features=84, out_features=10, bias=True)
)",pytorch,mnist,11/49,CrossEntropyLoss(),"SGD (
Parameter Group 0
    dampening: 0
    initial_lr: 0.1
    lr: 0.010000000000000002
    momentum: 0.9
    nesterov: False
    weight_decay: 0
)",<torch.optim.lr_scheduler.StepLR object at 0x7f93b2105ee0>,0.0097,0.9972,0.035,0.9903,1635737189,0m 10s
"Sequential(
  (0): Conv2d(1, 6, kernel_size=(5, 5), stride=(1, 1), padding=(2, 2))
  (1): ReLU()
  (2): AvgPool2d(kernel_size=2, stride=2, padding=0)
  (3): Conv2d(6, 16, kernel_size=(5, 5), stride=(1, 1))
  (4): ReLU()
  (5): AvgPool2d(kernel_size=2, stride=2, padding=0)
  (6): Flatten(start_dim=1, end_dim=-1)
  (7): Linear(in_features=400, out_features=120, bias=True)
  (8): ReLU()
  (9): Linear(in_features=120, out_features=84, bias=True)
  (10): ReLU()
  (11): Linear(in_features=84, out_features=10, bias=True)
)",pytorch,mnist,12/49,CrossEntropyLoss(),"SGD (
Parameter Group 0
    dampening: 0
    initial_lr: 0.1
    lr: 0.010000000000000002
    momentum: 0.9
    nesterov: False
    weight_decay: 0
)",<torch.optim.lr_scheduler.StepLR object at 0x7f93b2105ee0>,0.0089,0.9975,0.0356,0.9906,1635737199,0m 10s
"Sequential(
  (0): Conv2d(1, 6, kernel_size=(5, 5), stride=(1, 1), padding=(2, 2))
  (1): ReLU()
  (2): AvgPool2d(kernel_size=2, stride=2, padding=0)
  (3): Conv2d(6, 16, kernel_size=(5, 5), stride=(1, 1))
  (4): ReLU()
  (5): AvgPool2d(kernel_size=2, stride=2, padding=0)
  (6): Flatten(start_dim=1, end_dim=-1)
  (7): Linear(in_features=400, out_features=120, bias=True)
  (8): ReLU()
  (9): Linear(in_features=120, out_features=84, bias=True)
  (10): ReLU()
  (11): Linear(in_features=84, out_features=10, bias=True)
)",pytorch,mnist,13/49,CrossEntropyLoss(),"SGD (
Parameter Group 0
    dampening: 0
    initial_lr: 0.1
    lr: 0.0010000000000000002
    momentum: 0.9
    nesterov: False
    weight_decay: 0
)",<torch.optim.lr_scheduler.StepLR object at 0x7f93b2105ee0>,0.0082,0.9977,0.0361,0.9906,1635737209,0m 10s
"Sequential(
  (0): Conv2d(1, 6, kernel_size=(5, 5), stride=(1, 1), padding=(2, 2))
  (1): ReLU()
  (2): AvgPool2d(kernel_size=2, stride=2, padding=0)
  (3): Conv2d(6, 16, kernel_size=(5, 5), stride=(1, 1))
  (4): ReLU()
  (5): AvgPool2d(kernel_size=2, stride=2, padding=0)
  (6): Flatten(start_dim=1, end_dim=-1)
  (7): Linear(in_features=400, out_features=120, bias=True)
  (8): ReLU()
  (9): Linear(in_features=120, out_features=84, bias=True)
  (10): ReLU()
  (11): Linear(in_features=84, out_features=10, bias=True)
)",pytorch,mnist,14/49,CrossEntropyLoss(),"SGD (
Parameter Group 0
    dampening: 0
    initial_lr: 0.1
    lr: 0.0010000000000000002
    momentum: 0.9
    nesterov: False
    weight_decay: 0
)",<torch.optim.lr_scheduler.StepLR object at 0x7f93b2105ee0>,0.0073,0.9982,0.0354,0.9909,1635737219,0m 10s
"Sequential(
  (0): Conv2d(1, 6, kernel_size=(5, 5), stride=(1, 1), padding=(2, 2))
  (1): ReLU()
  (2): AvgPool2d(kernel_size=2, stride=2, padding=0)
  (3): Conv2d(6, 16, kernel_size=(5, 5), stride=(1, 1))
  (4): ReLU()
  (5): AvgPool2d(kernel_size=2, stride=2, padding=0)
  (6): Flatten(start_dim=1, end_dim=-1)
  (7): Linear(in_features=400, out_features=120, bias=True)
  (8): ReLU()
  (9): Linear(in_features=120, out_features=84, bias=True)
  (10): ReLU()
  (11): Linear(in_features=84, out_features=10, bias=True)
)",pytorch,mnist,15/49,CrossEntropyLoss(),"SGD (
Parameter Group 0
    dampening: 0
    initial_lr: 0.1
    lr: 0.0010000000000000002
    momentum: 0.9
    nesterov: False
    weight_decay: 0
)",<torch.optim.lr_scheduler.StepLR object at 0x7f93b2105ee0>,0.007,0.9983,0.0352,0.9908,1635737231,0m 11s
"Sequential(
  (0): Conv2d(1, 6, kernel_size=(5, 5), stride=(1, 1), padding=(2, 2))
  (1): ReLU()
  (2): AvgPool2d(kernel_size=2, stride=2, padding=0)
  (3): Conv2d(6, 16, kernel_size=(5, 5), stride=(1, 1))
  (4): ReLU()
  (5): AvgPool2d(kernel_size=2, stride=2, padding=0)
  (6): Flatten(start_dim=1, end_dim=-1)
  (7): Linear(in_features=400, out_features=120, bias=True)
  (8): ReLU()
  (9): Linear(in_features=120, out_features=84, bias=True)
  (10): ReLU()
  (11): Linear(in_features=84, out_features=10, bias=True)
)",pytorch,mnist,16/49,CrossEntropyLoss(),"SGD (
Parameter Group 0
    dampening: 0
    initial_lr: 0.1
    lr: 0.0010000000000000002
    momentum: 0.9
    nesterov: False
    weight_decay: 0
)",<torch.optim.lr_scheduler.StepLR object at 0x7f93b2105ee0>,0.0069,0.9983,0.0352,0.9908,1635737242,0m 11s
"Sequential(
  (0): Conv2d(1, 6, kernel_size=(5, 5), stride=(1, 1), padding=(2, 2))
  (1): ReLU()
  (2): AvgPool2d(kernel_size=2, stride=2, padding=0)
  (3): Conv2d(6, 16, kernel_size=(5, 5), stride=(1, 1))
  (4): ReLU()
  (5): AvgPool2d(kernel_size=2, stride=2, padding=0)
  (6): Flatten(start_dim=1, end_dim=-1)
  (7): Linear(in_features=400, out_features=120, bias=True)
  (8): ReLU()
  (9): Linear(in_features=120, out_features=84, bias=True)
  (10): ReLU()
  (11): Linear(in_features=84, out_features=10, bias=True)
)",pytorch,mnist,17/49,CrossEntropyLoss(),"SGD (
Parameter Group 0
    dampening: 0
    initial_lr: 0.1
    lr: 0.0010000000000000002
    momentum: 0.9
    nesterov: False
    weight_decay: 0
)",<torch.optim.lr_scheduler.StepLR object at 0x7f93b2105ee0>,0.0069,0.9983,0.0353,0.9908,1635737254,0m 12s
"Sequential(
  (0): Conv2d(1, 6, kernel_size=(5, 5), stride=(1, 1), padding=(2, 2))
  (1): ReLU()
  (2): AvgPool2d(kernel_size=2, stride=2, padding=0)
  (3): Conv2d(6, 16, kernel_size=(5, 5), stride=(1, 1))
  (4): ReLU()
  (5): AvgPool2d(kernel_size=2, stride=2, padding=0)
  (6): Flatten(start_dim=1, end_dim=-1)
  (7): Linear(in_features=400, out_features=120, bias=True)
  (8): ReLU()
  (9): Linear(in_features=120, out_features=84, bias=True)
  (10): ReLU()
  (11): Linear(in_features=84, out_features=10, bias=True)
)",pytorch,mnist,18/49,CrossEntropyLoss(),"SGD (
Parameter Group 0
    dampening: 0
    initial_lr: 0.1
    lr: 0.0010000000000000002
    momentum: 0.9
    nesterov: False
    weight_decay: 0
)",<torch.optim.lr_scheduler.StepLR object at 0x7f93b2105ee0>,0.0068,0.9983,0.0353,0.9908,1635737265,0m 11s
"Sequential(
  (0): Conv2d(1, 6, kernel_size=(5, 5), stride=(1, 1), padding=(2, 2))
  (1): ReLU()
  (2): AvgPool2d(kernel_size=2, stride=2, padding=0)
  (3): Conv2d(6, 16, kernel_size=(5, 5), stride=(1, 1))
  (4): ReLU()
  (5): AvgPool2d(kernel_size=2, stride=2, padding=0)
  (6): Flatten(start_dim=1, end_dim=-1)
  (7): Linear(in_features=400, out_features=120, bias=True)
  (8): ReLU()
  (9): Linear(in_features=120, out_features=84, bias=True)
  (10): ReLU()
  (11): Linear(in_features=84, out_features=10, bias=True)
)",pytorch,mnist,19/49,CrossEntropyLoss(),"SGD (
Parameter Group 0
    dampening: 0
    initial_lr: 0.1
    lr: 0.0010000000000000002
    momentum: 0.9
    nesterov: False
    weight_decay: 0
)",<torch.optim.lr_scheduler.StepLR object at 0x7f93b2105ee0>,0.0067,0.9984,0.0354,0.9909,1635737277,0m 11s
"Sequential(
  (0): Conv2d(1, 6, kernel_size=(5, 5), stride=(1, 1), padding=(2, 2))
  (1): ReLU()
  (2): AvgPool2d(kernel_size=2, stride=2, padding=0)
  (3): Conv2d(6, 16, kernel_size=(5, 5), stride=(1, 1))
  (4): ReLU()
  (5): AvgPool2d(kernel_size=2, stride=2, padding=0)
  (6): Flatten(start_dim=1, end_dim=-1)
  (7): Linear(in_features=400, out_features=120, bias=True)
  (8): ReLU()
  (9): Linear(in_features=120, out_features=84, bias=True)
  (10): ReLU()
  (11): Linear(in_features=84, out_features=10, bias=True)
)",pytorch,mnist,20/49,CrossEntropyLoss(),"SGD (
Parameter Group 0
    dampening: 0
    initial_lr: 0.1
    lr: 0.00010000000000000003
    momentum: 0.9
    nesterov: False
    weight_decay: 0
)",<torch.optim.lr_scheduler.StepLR object at 0x7f93b2105ee0>,0.0067,0.9984,0.0354,0.9907,1635737287,0m 10s
"Sequential(
  (0): Conv2d(1, 6, kernel_size=(5, 5), stride=(1, 1), padding=(2, 2))
  (1): ReLU()
  (2): AvgPool2d(kernel_size=2, stride=2, padding=0)
  (3): Conv2d(6, 16, kernel_size=(5, 5), stride=(1, 1))
  (4): ReLU()
  (5): AvgPool2d(kernel_size=2, stride=2, padding=0)
  (6): Flatten(start_dim=1, end_dim=-1)
  (7): Linear(in_features=400, out_features=120, bias=True)
  (8): ReLU()
  (9): Linear(in_features=120, out_features=84, bias=True)
  (10): ReLU()
  (11): Linear(in_features=84, out_features=10, bias=True)
)",pytorch,mnist,21/49,CrossEntropyLoss(),"SGD (
Parameter Group 0
    dampening: 0
    initial_lr: 0.1
    lr: 0.00010000000000000003
    momentum: 0.9
    nesterov: False
    weight_decay: 0
)",<torch.optim.lr_scheduler.StepLR object at 0x7f93b2105ee0>,0.0065,0.9984,0.0354,0.9907,1635737297,0m 10s
"Sequential(
  (0): Conv2d(1, 6, kernel_size=(5, 5), stride=(1, 1), padding=(2, 2))
  (1): ReLU()
  (2): AvgPool2d(kernel_size=2, stride=2, padding=0)
  (3): Conv2d(6, 16, kernel_size=(5, 5), stride=(1, 1))
  (4): ReLU()
  (5): AvgPool2d(kernel_size=2, stride=2, padding=0)
  (6): Flatten(start_dim=1, end_dim=-1)
  (7): Linear(in_features=400, out_features=120, bias=True)
  (8): ReLU()
  (9): Linear(in_features=120, out_features=84, bias=True)
  (10): ReLU()
  (11): Linear(in_features=84, out_features=10, bias=True)
)",pytorch,mnist,22/49,CrossEntropyLoss(),"SGD (
Parameter Group 0
    dampening: 0
    initial_lr: 0.1
    lr: 0.00010000000000000003
    momentum: 0.9
    nesterov: False
    weight_decay: 0
)",<torch.optim.lr_scheduler.StepLR object at 0x7f93b2105ee0>,0.0065,0.9984,0.0354,0.9907,1635737307,0m 10s
"Sequential(
  (0): Conv2d(1, 6, kernel_size=(5, 5), stride=(1, 1), padding=(2, 2))
  (1): ReLU()
  (2): AvgPool2d(kernel_size=2, stride=2, padding=0)
  (3): Conv2d(6, 16, kernel_size=(5, 5), stride=(1, 1))
  (4): ReLU()
  (5): AvgPool2d(kernel_size=2, stride=2, padding=0)
  (6): Flatten(start_dim=1, end_dim=-1)
  (7): Linear(in_features=400, out_features=120, bias=True)
  (8): ReLU()
  (9): Linear(in_features=120, out_features=84, bias=True)
  (10): ReLU()
  (11): Linear(in_features=84, out_features=10, bias=True)
)",pytorch,mnist,23/49,CrossEntropyLoss(),"SGD (
Parameter Group 0
    dampening: 0
    initial_lr: 0.1
    lr: 0.00010000000000000003
    momentum: 0.9
    nesterov: False
    weight_decay: 0
)",<torch.optim.lr_scheduler.StepLR object at 0x7f93b2105ee0>,0.0065,0.9984,0.0354,0.9907,1635737317,0m 10s
"Sequential(
  (0): Conv2d(1, 6, kernel_size=(5, 5), stride=(1, 1), padding=(2, 2))
  (1): ReLU()
  (2): AvgPool2d(kernel_size=2, stride=2, padding=0)
  (3): Conv2d(6, 16, kernel_size=(5, 5), stride=(1, 1))
  (4): ReLU()
  (5): AvgPool2d(kernel_size=2, stride=2, padding=0)
  (6): Flatten(start_dim=1, end_dim=-1)
  (7): Linear(in_features=400, out_features=120, bias=True)
  (8): ReLU()
  (9): Linear(in_features=120, out_features=84, bias=True)
  (10): ReLU()
  (11): Linear(in_features=84, out_features=10, bias=True)
)",pytorch,mnist,24/49,CrossEntropyLoss(),"SGD (
Parameter Group 0
    dampening: 0
    initial_lr: 0.1
    lr: 0.00010000000000000003
    momentum: 0.9
    nesterov: False
    weight_decay: 0
)",<torch.optim.lr_scheduler.StepLR object at 0x7f93b2105ee0>,0.0065,0.9984,0.0354,0.9907,1635737327,0m 10s
"Sequential(
  (0): Conv2d(1, 6, kernel_size=(5, 5), stride=(1, 1), padding=(2, 2))
  (1): ReLU()
  (2): AvgPool2d(kernel_size=2, stride=2, padding=0)
  (3): Conv2d(6, 16, kernel_size=(5, 5), stride=(1, 1))
  (4): ReLU()
  (5): AvgPool2d(kernel_size=2, stride=2, padding=0)
  (6): Flatten(start_dim=1, end_dim=-1)
  (7): Linear(in_features=400, out_features=120, bias=True)
  (8): ReLU()
  (9): Linear(in_features=120, out_features=84, bias=True)
  (10): ReLU()
  (11): Linear(in_features=84, out_features=10, bias=True)
)",pytorch,mnist,25/49,CrossEntropyLoss(),"SGD (
Parameter Group 0
    dampening: 0
    initial_lr: 0.1
    lr: 0.00010000000000000003
    momentum: 0.9
    nesterov: False
    weight_decay: 0
)",<torch.optim.lr_scheduler.StepLR object at 0x7f93b2105ee0>,0.0065,0.9984,0.0354,0.9907,1635737337,0m 10s
"Sequential(
  (0): Conv2d(1, 6, kernel_size=(5, 5), stride=(1, 1), padding=(2, 2))
  (1): ReLU()
  (2): AvgPool2d(kernel_size=2, stride=2, padding=0)
  (3): Conv2d(6, 16, kernel_size=(5, 5), stride=(1, 1))
  (4): ReLU()
  (5): AvgPool2d(kernel_size=2, stride=2, padding=0)
  (6): Flatten(start_dim=1, end_dim=-1)
  (7): Linear(in_features=400, out_features=120, bias=True)
  (8): ReLU()
  (9): Linear(in_features=120, out_features=84, bias=True)
  (10): ReLU()
  (11): Linear(in_features=84, out_features=10, bias=True)
)",pytorch,mnist,26/49,CrossEntropyLoss(),"SGD (
Parameter Group 0
    dampening: 0
    initial_lr: 0.1
    lr: 0.00010000000000000003
    momentum: 0.9
    nesterov: False
    weight_decay: 0
)",<torch.optim.lr_scheduler.StepLR object at 0x7f93b2105ee0>,0.0065,0.9984,0.0354,0.9907,1635737347,0m 10s
"Sequential(
  (0): Conv2d(1, 6, kernel_size=(5, 5), stride=(1, 1), padding=(2, 2))
  (1): ReLU()
  (2): AvgPool2d(kernel_size=2, stride=2, padding=0)
  (3): Conv2d(6, 16, kernel_size=(5, 5), stride=(1, 1))
  (4): ReLU()
  (5): AvgPool2d(kernel_size=2, stride=2, padding=0)
  (6): Flatten(start_dim=1, end_dim=-1)
  (7): Linear(in_features=400, out_features=120, bias=True)
  (8): ReLU()
  (9): Linear(in_features=120, out_features=84, bias=True)
  (10): ReLU()
  (11): Linear(in_features=84, out_features=10, bias=True)
)",pytorch,mnist,27/49,CrossEntropyLoss(),"SGD (
Parameter Group 0
    dampening: 0
    initial_lr: 0.1
    lr: 1.0000000000000004e-05
    momentum: 0.9
    nesterov: False
    weight_decay: 0
)",<torch.optim.lr_scheduler.StepLR object at 0x7f93b2105ee0>,0.0065,0.9984,0.0354,0.9907,1635737357,0m 10s
"Sequential(
  (0): Conv2d(1, 6, kernel_size=(5, 5), stride=(1, 1), padding=(2, 2))
  (1): ReLU()
  (2): AvgPool2d(kernel_size=2, stride=2, padding=0)
  (3): Conv2d(6, 16, kernel_size=(5, 5), stride=(1, 1))
  (4): ReLU()
  (5): AvgPool2d(kernel_size=2, stride=2, padding=0)
  (6): Flatten(start_dim=1, end_dim=-1)
  (7): Linear(in_features=400, out_features=120, bias=True)
  (8): ReLU()
  (9): Linear(in_features=120, out_features=84, bias=True)
  (10): ReLU()
  (11): Linear(in_features=84, out_features=10, bias=True)
)",pytorch,mnist,28/49,CrossEntropyLoss(),"SGD (
Parameter Group 0
    dampening: 0
    initial_lr: 0.1
    lr: 1.0000000000000004e-05
    momentum: 0.9
    nesterov: False
    weight_decay: 0
)",<torch.optim.lr_scheduler.StepLR object at 0x7f93b2105ee0>,0.0065,0.9984,0.0354,0.9907,1635737368,0m 11s
"Sequential(
  (0): Conv2d(1, 6, kernel_size=(5, 5), stride=(1, 1), padding=(2, 2))
  (1): ReLU()
  (2): AvgPool2d(kernel_size=2, stride=2, padding=0)
  (3): Conv2d(6, 16, kernel_size=(5, 5), stride=(1, 1))
  (4): ReLU()
  (5): AvgPool2d(kernel_size=2, stride=2, padding=0)
  (6): Flatten(start_dim=1, end_dim=-1)
  (7): Linear(in_features=400, out_features=120, bias=True)
  (8): ReLU()
  (9): Linear(in_features=120, out_features=84, bias=True)
  (10): ReLU()
  (11): Linear(in_features=84, out_features=10, bias=True)
)",pytorch,mnist,29/49,CrossEntropyLoss(),"SGD (
Parameter Group 0
    dampening: 0
    initial_lr: 0.1
    lr: 1.0000000000000004e-05
    momentum: 0.9
    nesterov: False
    weight_decay: 0
)",<torch.optim.lr_scheduler.StepLR object at 0x7f93b2105ee0>,0.0065,0.9984,0.0354,0.9907,1635737378,0m 10s
"Sequential(
  (0): Conv2d(1, 6, kernel_size=(5, 5), stride=(1, 1), padding=(2, 2))
  (1): ReLU()
  (2): AvgPool2d(kernel_size=2, stride=2, padding=0)
  (3): Conv2d(6, 16, kernel_size=(5, 5), stride=(1, 1))
  (4): ReLU()
  (5): AvgPool2d(kernel_size=2, stride=2, padding=0)
  (6): Flatten(start_dim=1, end_dim=-1)
  (7): Linear(in_features=400, out_features=120, bias=True)
  (8): ReLU()
  (9): Linear(in_features=120, out_features=84, bias=True)
  (10): ReLU()
  (11): Linear(in_features=84, out_features=10, bias=True)
)",pytorch,mnist,30/49,CrossEntropyLoss(),"SGD (
Parameter Group 0
    dampening: 0
    initial_lr: 0.1
    lr: 1.0000000000000004e-05
    momentum: 0.9
    nesterov: False
    weight_decay: 0
)",<torch.optim.lr_scheduler.StepLR object at 0x7f93b2105ee0>,0.0065,0.9984,0.0354,0.9907,1635737388,0m 10s
"Sequential(
  (0): Conv2d(1, 6, kernel_size=(5, 5), stride=(1, 1), padding=(2, 2))
  (1): ReLU()
  (2): AvgPool2d(kernel_size=2, stride=2, padding=0)
  (3): Conv2d(6, 16, kernel_size=(5, 5), stride=(1, 1))
  (4): ReLU()
  (5): AvgPool2d(kernel_size=2, stride=2, padding=0)
  (6): Flatten(start_dim=1, end_dim=-1)
  (7): Linear(in_features=400, out_features=120, bias=True)
  (8): ReLU()
  (9): Linear(in_features=120, out_features=84, bias=True)
  (10): ReLU()
  (11): Linear(in_features=84, out_features=10, bias=True)
)",pytorch,mnist,31/49,CrossEntropyLoss(),"SGD (
Parameter Group 0
    dampening: 0
    initial_lr: 0.1
    lr: 1.0000000000000004e-05
    momentum: 0.9
    nesterov: False
    weight_decay: 0
)",<torch.optim.lr_scheduler.StepLR object at 0x7f93b2105ee0>,0.0065,0.9984,0.0354,0.9907,1635737399,0m 10s
"Sequential(
  (0): Conv2d(1, 6, kernel_size=(5, 5), stride=(1, 1), padding=(2, 2))
  (1): ReLU()
  (2): AvgPool2d(kernel_size=2, stride=2, padding=0)
  (3): Conv2d(6, 16, kernel_size=(5, 5), stride=(1, 1))
  (4): ReLU()
  (5): AvgPool2d(kernel_size=2, stride=2, padding=0)
  (6): Flatten(start_dim=1, end_dim=-1)
  (7): Linear(in_features=400, out_features=120, bias=True)
  (8): ReLU()
  (9): Linear(in_features=120, out_features=84, bias=True)
  (10): ReLU()
  (11): Linear(in_features=84, out_features=10, bias=True)
)",pytorch,mnist,32/49,CrossEntropyLoss(),"SGD (
Parameter Group 0
    dampening: 0
    initial_lr: 0.1
    lr: 1.0000000000000004e-05
    momentum: 0.9
    nesterov: False
    weight_decay: 0
)",<torch.optim.lr_scheduler.StepLR object at 0x7f93b2105ee0>,0.0065,0.9984,0.0354,0.9907,1635737409,0m 11s
"Sequential(
  (0): Conv2d(1, 6, kernel_size=(5, 5), stride=(1, 1), padding=(2, 2))
  (1): ReLU()
  (2): AvgPool2d(kernel_size=2, stride=2, padding=0)
  (3): Conv2d(6, 16, kernel_size=(5, 5), stride=(1, 1))
  (4): ReLU()
  (5): AvgPool2d(kernel_size=2, stride=2, padding=0)
  (6): Flatten(start_dim=1, end_dim=-1)
  (7): Linear(in_features=400, out_features=120, bias=True)
  (8): ReLU()
  (9): Linear(in_features=120, out_features=84, bias=True)
  (10): ReLU()
  (11): Linear(in_features=84, out_features=10, bias=True)
)",pytorch,mnist,33/49,CrossEntropyLoss(),"SGD (
Parameter Group 0
    dampening: 0
    initial_lr: 0.1
    lr: 1.0000000000000004e-05
    momentum: 0.9
    nesterov: False
    weight_decay: 0
)",<torch.optim.lr_scheduler.StepLR object at 0x7f93b2105ee0>,0.0065,0.9984,0.0354,0.9907,1635737420,0m 10s
"Sequential(
  (0): Conv2d(1, 6, kernel_size=(5, 5), stride=(1, 1), padding=(2, 2))
  (1): ReLU()
  (2): AvgPool2d(kernel_size=2, stride=2, padding=0)
  (3): Conv2d(6, 16, kernel_size=(5, 5), stride=(1, 1))
  (4): ReLU()
  (5): AvgPool2d(kernel_size=2, stride=2, padding=0)
  (6): Flatten(start_dim=1, end_dim=-1)
  (7): Linear(in_features=400, out_features=120, bias=True)
  (8): ReLU()
  (9): Linear(in_features=120, out_features=84, bias=True)
  (10): ReLU()
  (11): Linear(in_features=84, out_features=10, bias=True)
)",pytorch,mnist,34/49,CrossEntropyLoss(),"SGD (
Parameter Group 0
    dampening: 0
    initial_lr: 0.1
    lr: 1.0000000000000004e-06
    momentum: 0.9
    nesterov: False
    weight_decay: 0
)",<torch.optim.lr_scheduler.StepLR object at 0x7f93b2105ee0>,0.0065,0.9984,0.0354,0.9907,1635737430,0m 10s
"Sequential(
  (0): Conv2d(1, 6, kernel_size=(5, 5), stride=(1, 1), padding=(2, 2))
  (1): ReLU()
  (2): AvgPool2d(kernel_size=2, stride=2, padding=0)
  (3): Conv2d(6, 16, kernel_size=(5, 5), stride=(1, 1))
  (4): ReLU()
  (5): AvgPool2d(kernel_size=2, stride=2, padding=0)
  (6): Flatten(start_dim=1, end_dim=-1)
  (7): Linear(in_features=400, out_features=120, bias=True)
  (8): ReLU()
  (9): Linear(in_features=120, out_features=84, bias=True)
  (10): ReLU()
  (11): Linear(in_features=84, out_features=10, bias=True)
)",pytorch,mnist,35/49,CrossEntropyLoss(),"SGD (
Parameter Group 0
    dampening: 0
    initial_lr: 0.1
    lr: 1.0000000000000004e-06
    momentum: 0.9
    nesterov: False
    weight_decay: 0
)",<torch.optim.lr_scheduler.StepLR object at 0x7f93b2105ee0>,0.0065,0.9984,0.0354,0.9907,1635737440,0m 11s
"Sequential(
  (0): Conv2d(1, 6, kernel_size=(5, 5), stride=(1, 1), padding=(2, 2))
  (1): ReLU()
  (2): AvgPool2d(kernel_size=2, stride=2, padding=0)
  (3): Conv2d(6, 16, kernel_size=(5, 5), stride=(1, 1))
  (4): ReLU()
  (5): AvgPool2d(kernel_size=2, stride=2, padding=0)
  (6): Flatten(start_dim=1, end_dim=-1)
  (7): Linear(in_features=400, out_features=120, bias=True)
  (8): ReLU()
  (9): Linear(in_features=120, out_features=84, bias=True)
  (10): ReLU()
  (11): Linear(in_features=84, out_features=10, bias=True)
)",pytorch,mnist,36/49,CrossEntropyLoss(),"SGD (
Parameter Group 0
    dampening: 0
    initial_lr: 0.1
    lr: 1.0000000000000004e-06
    momentum: 0.9
    nesterov: False
    weight_decay: 0
)",<torch.optim.lr_scheduler.StepLR object at 0x7f93b2105ee0>,0.0065,0.9984,0.0354,0.9907,1635737451,0m 10s
"Sequential(
  (0): Conv2d(1, 6, kernel_size=(5, 5), stride=(1, 1), padding=(2, 2))
  (1): ReLU()
  (2): AvgPool2d(kernel_size=2, stride=2, padding=0)
  (3): Conv2d(6, 16, kernel_size=(5, 5), stride=(1, 1))
  (4): ReLU()
  (5): AvgPool2d(kernel_size=2, stride=2, padding=0)
  (6): Flatten(start_dim=1, end_dim=-1)
  (7): Linear(in_features=400, out_features=120, bias=True)
  (8): ReLU()
  (9): Linear(in_features=120, out_features=84, bias=True)
  (10): ReLU()
  (11): Linear(in_features=84, out_features=10, bias=True)
)",pytorch,mnist,37/49,CrossEntropyLoss(),"SGD (
Parameter Group 0
    dampening: 0
    initial_lr: 0.1
    lr: 1.0000000000000004e-06
    momentum: 0.9
    nesterov: False
    weight_decay: 0
)",<torch.optim.lr_scheduler.StepLR object at 0x7f93b2105ee0>,0.0065,0.9984,0.0354,0.9907,1635737461,0m 10s
"Sequential(
  (0): Conv2d(1, 6, kernel_size=(5, 5), stride=(1, 1), padding=(2, 2))
  (1): ReLU()
  (2): AvgPool2d(kernel_size=2, stride=2, padding=0)
  (3): Conv2d(6, 16, kernel_size=(5, 5), stride=(1, 1))
  (4): ReLU()
  (5): AvgPool2d(kernel_size=2, stride=2, padding=0)
  (6): Flatten(start_dim=1, end_dim=-1)
  (7): Linear(in_features=400, out_features=120, bias=True)
  (8): ReLU()
  (9): Linear(in_features=120, out_features=84, bias=True)
  (10): ReLU()
  (11): Linear(in_features=84, out_features=10, bias=True)
)",pytorch,mnist,38/49,CrossEntropyLoss(),"SGD (
Parameter Group 0
    dampening: 0
    initial_lr: 0.1
    lr: 1.0000000000000004e-06
    momentum: 0.9
    nesterov: False
    weight_decay: 0
)",<torch.optim.lr_scheduler.StepLR object at 0x7f93b2105ee0>,0.0065,0.9984,0.0354,0.9907,1635737471,0m 10s
"Sequential(
  (0): Conv2d(1, 6, kernel_size=(5, 5), stride=(1, 1), padding=(2, 2))
  (1): ReLU()
  (2): AvgPool2d(kernel_size=2, stride=2, padding=0)
  (3): Conv2d(6, 16, kernel_size=(5, 5), stride=(1, 1))
  (4): ReLU()
  (5): AvgPool2d(kernel_size=2, stride=2, padding=0)
  (6): Flatten(start_dim=1, end_dim=-1)
  (7): Linear(in_features=400, out_features=120, bias=True)
  (8): ReLU()
  (9): Linear(in_features=120, out_features=84, bias=True)
  (10): ReLU()
  (11): Linear(in_features=84, out_features=10, bias=True)
)",pytorch,mnist,39/49,CrossEntropyLoss(),"SGD (
Parameter Group 0
    dampening: 0
    initial_lr: 0.1
    lr: 1.0000000000000004e-06
    momentum: 0.9
    nesterov: False
    weight_decay: 0
)",<torch.optim.lr_scheduler.StepLR object at 0x7f93b2105ee0>,0.0065,0.9984,0.0354,0.9907,1635737481,0m 10s
"Sequential(
  (0): Conv2d(1, 6, kernel_size=(5, 5), stride=(1, 1), padding=(2, 2))
  (1): ReLU()
  (2): AvgPool2d(kernel_size=2, stride=2, padding=0)
  (3): Conv2d(6, 16, kernel_size=(5, 5), stride=(1, 1))
  (4): ReLU()
  (5): AvgPool2d(kernel_size=2, stride=2, padding=0)
  (6): Flatten(start_dim=1, end_dim=-1)
  (7): Linear(in_features=400, out_features=120, bias=True)
  (8): ReLU()
  (9): Linear(in_features=120, out_features=84, bias=True)
  (10): ReLU()
  (11): Linear(in_features=84, out_features=10, bias=True)
)",pytorch,mnist,40/49,CrossEntropyLoss(),"SGD (
Parameter Group 0
    dampening: 0
    initial_lr: 0.1
    lr: 1.0000000000000004e-06
    momentum: 0.9
    nesterov: False
    weight_decay: 0
)",<torch.optim.lr_scheduler.StepLR object at 0x7f93b2105ee0>,0.0065,0.9984,0.0354,0.9907,1635737491,0m 10s
"Sequential(
  (0): Conv2d(1, 6, kernel_size=(5, 5), stride=(1, 1), padding=(2, 2))
  (1): ReLU()
  (2): AvgPool2d(kernel_size=2, stride=2, padding=0)
  (3): Conv2d(6, 16, kernel_size=(5, 5), stride=(1, 1))
  (4): ReLU()
  (5): AvgPool2d(kernel_size=2, stride=2, padding=0)
  (6): Flatten(start_dim=1, end_dim=-1)
  (7): Linear(in_features=400, out_features=120, bias=True)
  (8): ReLU()
  (9): Linear(in_features=120, out_features=84, bias=True)
  (10): ReLU()
  (11): Linear(in_features=84, out_features=10, bias=True)
)",pytorch,mnist,41/49,CrossEntropyLoss(),"SGD (
Parameter Group 0
    dampening: 0
    initial_lr: 0.1
    lr: 1.0000000000000005e-07
    momentum: 0.9
    nesterov: False
    weight_decay: 0
)",<torch.optim.lr_scheduler.StepLR object at 0x7f93b2105ee0>,0.0065,0.9984,0.0354,0.9907,1635737501,0m 10s
"Sequential(
  (0): Conv2d(1, 6, kernel_size=(5, 5), stride=(1, 1), padding=(2, 2))
  (1): ReLU()
  (2): AvgPool2d(kernel_size=2, stride=2, padding=0)
  (3): Conv2d(6, 16, kernel_size=(5, 5), stride=(1, 1))
  (4): ReLU()
  (5): AvgPool2d(kernel_size=2, stride=2, padding=0)
  (6): Flatten(start_dim=1, end_dim=-1)
  (7): Linear(in_features=400, out_features=120, bias=True)
  (8): ReLU()
  (9): Linear(in_features=120, out_features=84, bias=True)
  (10): ReLU()
  (11): Linear(in_features=84, out_features=10, bias=True)
)",pytorch,mnist,42/49,CrossEntropyLoss(),"SGD (
Parameter Group 0
    dampening: 0
    initial_lr: 0.1
    lr: 1.0000000000000005e-07
    momentum: 0.9
    nesterov: False
    weight_decay: 0
)",<torch.optim.lr_scheduler.StepLR object at 0x7f93b2105ee0>,0.0065,0.9984,0.0354,0.9907,1635737511,0m 10s
"Sequential(
  (0): Conv2d(1, 6, kernel_size=(5, 5), stride=(1, 1), padding=(2, 2))
  (1): ReLU()
  (2): AvgPool2d(kernel_size=2, stride=2, padding=0)
  (3): Conv2d(6, 16, kernel_size=(5, 5), stride=(1, 1))
  (4): ReLU()
  (5): AvgPool2d(kernel_size=2, stride=2, padding=0)
  (6): Flatten(start_dim=1, end_dim=-1)
  (7): Linear(in_features=400, out_features=120, bias=True)
  (8): ReLU()
  (9): Linear(in_features=120, out_features=84, bias=True)
  (10): ReLU()
  (11): Linear(in_features=84, out_features=10, bias=True)
)",pytorch,mnist,43/49,CrossEntropyLoss(),"SGD (
Parameter Group 0
    dampening: 0
    initial_lr: 0.1
    lr: 1.0000000000000005e-07
    momentum: 0.9
    nesterov: False
    weight_decay: 0
)",<torch.optim.lr_scheduler.StepLR object at 0x7f93b2105ee0>,0.0065,0.9984,0.0354,0.9907,1635737521,0m 10s
"Sequential(
  (0): Conv2d(1, 6, kernel_size=(5, 5), stride=(1, 1), padding=(2, 2))
  (1): ReLU()
  (2): AvgPool2d(kernel_size=2, stride=2, padding=0)
  (3): Conv2d(6, 16, kernel_size=(5, 5), stride=(1, 1))
  (4): ReLU()
  (5): AvgPool2d(kernel_size=2, stride=2, padding=0)
  (6): Flatten(start_dim=1, end_dim=-1)
  (7): Linear(in_features=400, out_features=120, bias=True)
  (8): ReLU()
  (9): Linear(in_features=120, out_features=84, bias=True)
  (10): ReLU()
  (11): Linear(in_features=84, out_features=10, bias=True)
)",pytorch,mnist,44/49,CrossEntropyLoss(),"SGD (
Parameter Group 0
    dampening: 0
    initial_lr: 0.1
    lr: 1.0000000000000005e-07
    momentum: 0.9
    nesterov: False
    weight_decay: 0
)",<torch.optim.lr_scheduler.StepLR object at 0x7f93b2105ee0>,0.0065,0.9984,0.0354,0.9907,1635737531,0m 10s
"Sequential(
  (0): Conv2d(1, 6, kernel_size=(5, 5), stride=(1, 1), padding=(2, 2))
  (1): ReLU()
  (2): AvgPool2d(kernel_size=2, stride=2, padding=0)
  (3): Conv2d(6, 16, kernel_size=(5, 5), stride=(1, 1))
  (4): ReLU()
  (5): AvgPool2d(kernel_size=2, stride=2, padding=0)
  (6): Flatten(start_dim=1, end_dim=-1)
  (7): Linear(in_features=400, out_features=120, bias=True)
  (8): ReLU()
  (9): Linear(in_features=120, out_features=84, bias=True)
  (10): ReLU()
  (11): Linear(in_features=84, out_features=10, bias=True)
)",pytorch,mnist,45/49,CrossEntropyLoss(),"SGD (
Parameter Group 0
    dampening: 0
    initial_lr: 0.1
    lr: 1.0000000000000005e-07
    momentum: 0.9
    nesterov: False
    weight_decay: 0
)",<torch.optim.lr_scheduler.StepLR object at 0x7f93b2105ee0>,0.0065,0.9984,0.0354,0.9907,1635737542,0m 11s
"Sequential(
  (0): Conv2d(1, 6, kernel_size=(5, 5), stride=(1, 1), padding=(2, 2))
  (1): ReLU()
  (2): AvgPool2d(kernel_size=2, stride=2, padding=0)
  (3): Conv2d(6, 16, kernel_size=(5, 5), stride=(1, 1))
  (4): ReLU()
  (5): AvgPool2d(kernel_size=2, stride=2, padding=0)
  (6): Flatten(start_dim=1, end_dim=-1)
  (7): Linear(in_features=400, out_features=120, bias=True)
  (8): ReLU()
  (9): Linear(in_features=120, out_features=84, bias=True)
  (10): ReLU()
  (11): Linear(in_features=84, out_features=10, bias=True)
)",pytorch,mnist,46/49,CrossEntropyLoss(),"SGD (
Parameter Group 0
    dampening: 0
    initial_lr: 0.1
    lr: 1.0000000000000005e-07
    momentum: 0.9
    nesterov: False
    weight_decay: 0
)",<torch.optim.lr_scheduler.StepLR object at 0x7f93b2105ee0>,0.0065,0.9984,0.0354,0.9907,1635737552,0m 10s
"Sequential(
  (0): Conv2d(1, 6, kernel_size=(5, 5), stride=(1, 1), padding=(2, 2))
  (1): ReLU()
  (2): AvgPool2d(kernel_size=2, stride=2, padding=0)
  (3): Conv2d(6, 16, kernel_size=(5, 5), stride=(1, 1))
  (4): ReLU()
  (5): AvgPool2d(kernel_size=2, stride=2, padding=0)
  (6): Flatten(start_dim=1, end_dim=-1)
  (7): Linear(in_features=400, out_features=120, bias=True)
  (8): ReLU()
  (9): Linear(in_features=120, out_features=84, bias=True)
  (10): ReLU()
  (11): Linear(in_features=84, out_features=10, bias=True)
)",pytorch,mnist,47/49,CrossEntropyLoss(),"SGD (
Parameter Group 0
    dampening: 0
    initial_lr: 0.1
    lr: 1.0000000000000005e-07
    momentum: 0.9
    nesterov: False
    weight_decay: 0
)",<torch.optim.lr_scheduler.StepLR object at 0x7f93b2105ee0>,0.0065,0.9984,0.0354,0.9907,1635737562,0m 10s
"Sequential(
  (0): Conv2d(1, 6, kernel_size=(5, 5), stride=(1, 1), padding=(2, 2))
  (1): ReLU()
  (2): AvgPool2d(kernel_size=2, stride=2, padding=0)
  (3): Conv2d(6, 16, kernel_size=(5, 5), stride=(1, 1))
  (4): ReLU()
  (5): AvgPool2d(kernel_size=2, stride=2, padding=0)
  (6): Flatten(start_dim=1, end_dim=-1)
  (7): Linear(in_features=400, out_features=120, bias=True)
  (8): ReLU()
  (9): Linear(in_features=120, out_features=84, bias=True)
  (10): ReLU()
  (11): Linear(in_features=84, out_features=10, bias=True)
)",pytorch,mnist,48/49,CrossEntropyLoss(),"SGD (
Parameter Group 0
    dampening: 0
    initial_lr: 0.1
    lr: 1.0000000000000005e-08
    momentum: 0.9
    nesterov: False
    weight_decay: 0
)",<torch.optim.lr_scheduler.StepLR object at 0x7f93b2105ee0>,0.0065,0.9984,0.0354,0.9907,1635737572,0m 10s
"Sequential(
  (0): Conv2d(1, 6, kernel_size=(5, 5), stride=(1, 1), padding=(2, 2))
  (1): ReLU()
  (2): AvgPool2d(kernel_size=2, stride=2, padding=0)
  (3): Conv2d(6, 16, kernel_size=(5, 5), stride=(1, 1))
  (4): ReLU()
  (5): AvgPool2d(kernel_size=2, stride=2, padding=0)
  (6): Flatten(start_dim=1, end_dim=-1)
  (7): Linear(in_features=400, out_features=120, bias=True)
  (8): ReLU()
  (9): Linear(in_features=120, out_features=84, bias=True)
  (10): ReLU()
  (11): Linear(in_features=84, out_features=10, bias=True)
)",pytorch,mnist,49/49,CrossEntropyLoss(),"SGD (
Parameter Group 0
    dampening: 0
    initial_lr: 0.1
    lr: 1.0000000000000005e-08
    momentum: 0.9
    nesterov: False
    weight_decay: 0
)",<torch.optim.lr_scheduler.StepLR object at 0x7f93b2105ee0>,0.0065,0.9984,0.0354,0.9907,1635737582,0m 10s