Model,type,Dataset,Epoch,criterion,optimizer,scheduler,Train_loss,Train_acc,val_loss,Val_acc,time,Elasttime
"Sequential(
  (0): Conv2d(1, 6, kernel_size=(5, 5), stride=(1, 1), padding=(2, 2))
  (1): ReLU()
  (2): AvgPool2d(kernel_size=2, stride=2, padding=0)
  (3): Conv2d(6, 16, kernel_size=(5, 5), stride=(1, 1))
  (4): ReLU()
  (5): AvgPool2d(kernel_size=2, stride=2, padding=0)
  (6): Flatten(start_dim=1, end_dim=-1)
  (7): Linear(in_features=400, out_features=120, bias=True)
  (8): ReLU()
  (9): Linear(in_features=120, out_features=84, bias=True)
  (10): ReLU()
  (11): Linear(in_features=84, out_features=10, bias=True)
)",pytorch,mnist,0/49,CrossEntropyLoss(),"SGD (
Parameter Group 0
    dampening: 0
    initial_lr: 0.1
    lr: 0.1
    momentum: 0.9
    nesterov: False
    weight_decay: 0
)",<torch.optim.lr_scheduler.StepLR object at 0x7fdf8ebefb50>,2.1932,0.1703,0.909,0.7108,1635788646,0m 11s
"Sequential(
  (0): Conv2d(1, 6, kernel_size=(5, 5), stride=(1, 1), padding=(2, 2))
  (1): ReLU()
  (2): AvgPool2d(kernel_size=2, stride=2, padding=0)
  (3): Conv2d(6, 16, kernel_size=(5, 5), stride=(1, 1))
  (4): ReLU()
  (5): AvgPool2d(kernel_size=2, stride=2, padding=0)
  (6): Flatten(start_dim=1, end_dim=-1)
  (7): Linear(in_features=400, out_features=120, bias=True)
  (8): ReLU()
  (9): Linear(in_features=120, out_features=84, bias=True)
  (10): ReLU()
  (11): Linear(in_features=84, out_features=10, bias=True)
)",pytorch,mnist,1/49,CrossEntropyLoss(),"SGD (
Parameter Group 0
    dampening: 0
    initial_lr: 0.1
    lr: 0.1
    momentum: 0.9
    nesterov: False
    weight_decay: 0
)",<torch.optim.lr_scheduler.StepLR object at 0x7fdf8ebefb50>,0.2783,0.914,0.1291,0.9615,1635788657,0m 11s
"Sequential(
  (0): Conv2d(1, 6, kernel_size=(5, 5), stride=(1, 1), padding=(2, 2))
  (1): ReLU()
  (2): AvgPool2d(kernel_size=2, stride=2, padding=0)
  (3): Conv2d(6, 16, kernel_size=(5, 5), stride=(1, 1))
  (4): ReLU()
  (5): AvgPool2d(kernel_size=2, stride=2, padding=0)
  (6): Flatten(start_dim=1, end_dim=-1)
  (7): Linear(in_features=400, out_features=120, bias=True)
  (8): ReLU()
  (9): Linear(in_features=120, out_features=84, bias=True)
  (10): ReLU()
  (11): Linear(in_features=84, out_features=10, bias=True)
)",pytorch,mnist,2/49,CrossEntropyLoss(),"SGD (
Parameter Group 0
    dampening: 0
    initial_lr: 0.1
    lr: 0.1
    momentum: 0.9
    nesterov: False
    weight_decay: 0
)",<torch.optim.lr_scheduler.StepLR object at 0x7fdf8ebefb50>,0.1246,0.9634,0.0793,0.975,1635788667,0m 11s
"Sequential(
  (0): Conv2d(1, 6, kernel_size=(5, 5), stride=(1, 1), padding=(2, 2))
  (1): ReLU()
  (2): AvgPool2d(kernel_size=2, stride=2, padding=0)
  (3): Conv2d(6, 16, kernel_size=(5, 5), stride=(1, 1))
  (4): ReLU()
  (5): AvgPool2d(kernel_size=2, stride=2, padding=0)
  (6): Flatten(start_dim=1, end_dim=-1)
  (7): Linear(in_features=400, out_features=120, bias=True)
  (8): ReLU()
  (9): Linear(in_features=120, out_features=84, bias=True)
  (10): ReLU()
  (11): Linear(in_features=84, out_features=10, bias=True)
)",pytorch,mnist,3/49,CrossEntropyLoss(),"SGD (
Parameter Group 0
    dampening: 0
    initial_lr: 0.1
    lr: 0.1
    momentum: 0.9
    nesterov: False
    weight_decay: 0
)",<torch.optim.lr_scheduler.StepLR object at 0x7fdf8ebefb50>,0.0916,0.9724,0.0868,0.9727,1635788678,0m 11s
"Sequential(
  (0): Conv2d(1, 6, kernel_size=(5, 5), stride=(1, 1), padding=(2, 2))
  (1): ReLU()
  (2): AvgPool2d(kernel_size=2, stride=2, padding=0)
  (3): Conv2d(6, 16, kernel_size=(5, 5), stride=(1, 1))
  (4): ReLU()
  (5): AvgPool2d(kernel_size=2, stride=2, padding=0)
  (6): Flatten(start_dim=1, end_dim=-1)
  (7): Linear(in_features=400, out_features=120, bias=True)
  (8): ReLU()
  (9): Linear(in_features=120, out_features=84, bias=True)
  (10): ReLU()
  (11): Linear(in_features=84, out_features=10, bias=True)
)",pytorch,mnist,4/49,CrossEntropyLoss(),"SGD (
Parameter Group 0
    dampening: 0
    initial_lr: 0.1
    lr: 0.1
    momentum: 0.9
    nesterov: False
    weight_decay: 0
)",<torch.optim.lr_scheduler.StepLR object at 0x7fdf8ebefb50>,0.0776,0.9766,0.0816,0.9759,1635788690,0m 12s
"Sequential(
  (0): Conv2d(1, 6, kernel_size=(5, 5), stride=(1, 1), padding=(2, 2))
  (1): ReLU()
  (2): AvgPool2d(kernel_size=2, stride=2, padding=0)
  (3): Conv2d(6, 16, kernel_size=(5, 5), stride=(1, 1))
  (4): ReLU()
  (5): AvgPool2d(kernel_size=2, stride=2, padding=0)
  (6): Flatten(start_dim=1, end_dim=-1)
  (7): Linear(in_features=400, out_features=120, bias=True)
  (8): ReLU()
  (9): Linear(in_features=120, out_features=84, bias=True)
  (10): ReLU()
  (11): Linear(in_features=84, out_features=10, bias=True)
)",pytorch,mnist,5/49,CrossEntropyLoss(),"SGD (
Parameter Group 0
    dampening: 0
    initial_lr: 0.1
    lr: 0.1
    momentum: 0.9
    nesterov: False
    weight_decay: 0
)",<torch.optim.lr_scheduler.StepLR object at 0x7fdf8ebefb50>,0.0672,0.9801,0.088,0.9739,1635788701,0m 11s
"Sequential(
  (0): Conv2d(1, 6, kernel_size=(5, 5), stride=(1, 1), padding=(2, 2))
  (1): ReLU()
  (2): AvgPool2d(kernel_size=2, stride=2, padding=0)
  (3): Conv2d(6, 16, kernel_size=(5, 5), stride=(1, 1))
  (4): ReLU()
  (5): AvgPool2d(kernel_size=2, stride=2, padding=0)
  (6): Flatten(start_dim=1, end_dim=-1)
  (7): Linear(in_features=400, out_features=120, bias=True)
  (8): ReLU()
  (9): Linear(in_features=120, out_features=84, bias=True)
  (10): ReLU()
  (11): Linear(in_features=84, out_features=10, bias=True)
)",pytorch,mnist,6/49,CrossEntropyLoss(),"SGD (
Parameter Group 0
    dampening: 0
    initial_lr: 0.1
    lr: 0.010000000000000002
    momentum: 0.9
    nesterov: False
    weight_decay: 0
)",<torch.optim.lr_scheduler.StepLR object at 0x7fdf8ebefb50>,0.0605,0.9814,0.0695,0.9804,1635788711,0m 10s
"Sequential(
  (0): Conv2d(1, 6, kernel_size=(5, 5), stride=(1, 1), padding=(2, 2))
  (1): ReLU()
  (2): AvgPool2d(kernel_size=2, stride=2, padding=0)
  (3): Conv2d(6, 16, kernel_size=(5, 5), stride=(1, 1))
  (4): ReLU()
  (5): AvgPool2d(kernel_size=2, stride=2, padding=0)
  (6): Flatten(start_dim=1, end_dim=-1)
  (7): Linear(in_features=400, out_features=120, bias=True)
  (8): ReLU()
  (9): Linear(in_features=120, out_features=84, bias=True)
  (10): ReLU()
  (11): Linear(in_features=84, out_features=10, bias=True)
)",pytorch,mnist,7/49,CrossEntropyLoss(),"SGD (
Parameter Group 0
    dampening: 0
    initial_lr: 0.1
    lr: 0.010000000000000002
    momentum: 0.9
    nesterov: False
    weight_decay: 0
)",<torch.optim.lr_scheduler.StepLR object at 0x7fdf8ebefb50>,0.0358,0.9889,0.0439,0.9866,1635788721,0m 10s
"Sequential(
  (0): Conv2d(1, 6, kernel_size=(5, 5), stride=(1, 1), padding=(2, 2))
  (1): ReLU()
  (2): AvgPool2d(kernel_size=2, stride=2, padding=0)
  (3): Conv2d(6, 16, kernel_size=(5, 5), stride=(1, 1))
  (4): ReLU()
  (5): AvgPool2d(kernel_size=2, stride=2, padding=0)
  (6): Flatten(start_dim=1, end_dim=-1)
  (7): Linear(in_features=400, out_features=120, bias=True)
  (8): ReLU()
  (9): Linear(in_features=120, out_features=84, bias=True)
  (10): ReLU()
  (11): Linear(in_features=84, out_features=10, bias=True)
)",pytorch,mnist,8/49,CrossEntropyLoss(),"SGD (
Parameter Group 0
    dampening: 0
    initial_lr: 0.1
    lr: 0.010000000000000002
    momentum: 0.9
    nesterov: False
    weight_decay: 0
)",<torch.optim.lr_scheduler.StepLR object at 0x7fdf8ebefb50>,0.0293,0.9909,0.042,0.9873,1635788731,0m 10s
"Sequential(
  (0): Conv2d(1, 6, kernel_size=(5, 5), stride=(1, 1), padding=(2, 2))
  (1): ReLU()
  (2): AvgPool2d(kernel_size=2, stride=2, padding=0)
  (3): Conv2d(6, 16, kernel_size=(5, 5), stride=(1, 1))
  (4): ReLU()
  (5): AvgPool2d(kernel_size=2, stride=2, padding=0)
  (6): Flatten(start_dim=1, end_dim=-1)
  (7): Linear(in_features=400, out_features=120, bias=True)
  (8): ReLU()
  (9): Linear(in_features=120, out_features=84, bias=True)
  (10): ReLU()
  (11): Linear(in_features=84, out_features=10, bias=True)
)",pytorch,mnist,9/49,CrossEntropyLoss(),"SGD (
Parameter Group 0
    dampening: 0
    initial_lr: 0.1
    lr: 0.010000000000000002
    momentum: 0.9
    nesterov: False
    weight_decay: 0
)",<torch.optim.lr_scheduler.StepLR object at 0x7fdf8ebefb50>,0.0269,0.9915,0.0411,0.9878,1635788741,0m 10s
"Sequential(
  (0): Conv2d(1, 6, kernel_size=(5, 5), stride=(1, 1), padding=(2, 2))
  (1): ReLU()
  (2): AvgPool2d(kernel_size=2, stride=2, padding=0)
  (3): Conv2d(6, 16, kernel_size=(5, 5), stride=(1, 1))
  (4): ReLU()
  (5): AvgPool2d(kernel_size=2, stride=2, padding=0)
  (6): Flatten(start_dim=1, end_dim=-1)
  (7): Linear(in_features=400, out_features=120, bias=True)
  (8): ReLU()
  (9): Linear(in_features=120, out_features=84, bias=True)
  (10): ReLU()
  (11): Linear(in_features=84, out_features=10, bias=True)
)",pytorch,mnist,10/49,CrossEntropyLoss(),"SGD (
Parameter Group 0
    dampening: 0
    initial_lr: 0.1
    lr: 0.010000000000000002
    momentum: 0.9
    nesterov: False
    weight_decay: 0
)",<torch.optim.lr_scheduler.StepLR object at 0x7fdf8ebefb50>,0.0251,0.9921,0.0409,0.9873,1635788751,0m 10s
"Sequential(
  (0): Conv2d(1, 6, kernel_size=(5, 5), stride=(1, 1), padding=(2, 2))
  (1): ReLU()
  (2): AvgPool2d(kernel_size=2, stride=2, padding=0)
  (3): Conv2d(6, 16, kernel_size=(5, 5), stride=(1, 1))
  (4): ReLU()
  (5): AvgPool2d(kernel_size=2, stride=2, padding=0)
  (6): Flatten(start_dim=1, end_dim=-1)
  (7): Linear(in_features=400, out_features=120, bias=True)
  (8): ReLU()
  (9): Linear(in_features=120, out_features=84, bias=True)
  (10): ReLU()
  (11): Linear(in_features=84, out_features=10, bias=True)
)",pytorch,mnist,11/49,CrossEntropyLoss(),"SGD (
Parameter Group 0
    dampening: 0
    initial_lr: 0.1
    lr: 0.010000000000000002
    momentum: 0.9
    nesterov: False
    weight_decay: 0
)",<torch.optim.lr_scheduler.StepLR object at 0x7fdf8ebefb50>,0.0237,0.9928,0.0405,0.9876,1635788761,0m 10s
"Sequential(
  (0): Conv2d(1, 6, kernel_size=(5, 5), stride=(1, 1), padding=(2, 2))
  (1): ReLU()
  (2): AvgPool2d(kernel_size=2, stride=2, padding=0)
  (3): Conv2d(6, 16, kernel_size=(5, 5), stride=(1, 1))
  (4): ReLU()
  (5): AvgPool2d(kernel_size=2, stride=2, padding=0)
  (6): Flatten(start_dim=1, end_dim=-1)
  (7): Linear(in_features=400, out_features=120, bias=True)
  (8): ReLU()
  (9): Linear(in_features=120, out_features=84, bias=True)
  (10): ReLU()
  (11): Linear(in_features=84, out_features=10, bias=True)
)",pytorch,mnist,12/49,CrossEntropyLoss(),"SGD (
Parameter Group 0
    dampening: 0
    initial_lr: 0.1
    lr: 0.010000000000000002
    momentum: 0.9
    nesterov: False
    weight_decay: 0
)",<torch.optim.lr_scheduler.StepLR object at 0x7fdf8ebefb50>,0.0224,0.9931,0.0404,0.9875,1635788771,0m 10s
"Sequential(
  (0): Conv2d(1, 6, kernel_size=(5, 5), stride=(1, 1), padding=(2, 2))
  (1): ReLU()
  (2): AvgPool2d(kernel_size=2, stride=2, padding=0)
  (3): Conv2d(6, 16, kernel_size=(5, 5), stride=(1, 1))
  (4): ReLU()
  (5): AvgPool2d(kernel_size=2, stride=2, padding=0)
  (6): Flatten(start_dim=1, end_dim=-1)
  (7): Linear(in_features=400, out_features=120, bias=True)
  (8): ReLU()
  (9): Linear(in_features=120, out_features=84, bias=True)
  (10): ReLU()
  (11): Linear(in_features=84, out_features=10, bias=True)
)",pytorch,mnist,13/49,CrossEntropyLoss(),"SGD (
Parameter Group 0
    dampening: 0
    initial_lr: 0.1
    lr: 0.0010000000000000002
    momentum: 0.9
    nesterov: False
    weight_decay: 0
)",<torch.optim.lr_scheduler.StepLR object at 0x7fdf8ebefb50>,0.0213,0.9935,0.0406,0.9879,1635788781,0m 10s
"Sequential(
  (0): Conv2d(1, 6, kernel_size=(5, 5), stride=(1, 1), padding=(2, 2))
  (1): ReLU()
  (2): AvgPool2d(kernel_size=2, stride=2, padding=0)
  (3): Conv2d(6, 16, kernel_size=(5, 5), stride=(1, 1))
  (4): ReLU()
  (5): AvgPool2d(kernel_size=2, stride=2, padding=0)
  (6): Flatten(start_dim=1, end_dim=-1)
  (7): Linear(in_features=400, out_features=120, bias=True)
  (8): ReLU()
  (9): Linear(in_features=120, out_features=84, bias=True)
  (10): ReLU()
  (11): Linear(in_features=84, out_features=10, bias=True)
)",pytorch,mnist,14/49,CrossEntropyLoss(),"SGD (
Parameter Group 0
    dampening: 0
    initial_lr: 0.1
    lr: 0.0010000000000000002
    momentum: 0.9
    nesterov: False
    weight_decay: 0
)",<torch.optim.lr_scheduler.StepLR object at 0x7fdf8ebefb50>,0.0197,0.994,0.0395,0.9881,1635788791,0m 10s
"Sequential(
  (0): Conv2d(1, 6, kernel_size=(5, 5), stride=(1, 1), padding=(2, 2))
  (1): ReLU()
  (2): AvgPool2d(kernel_size=2, stride=2, padding=0)
  (3): Conv2d(6, 16, kernel_size=(5, 5), stride=(1, 1))
  (4): ReLU()
  (5): AvgPool2d(kernel_size=2, stride=2, padding=0)
  (6): Flatten(start_dim=1, end_dim=-1)
  (7): Linear(in_features=400, out_features=120, bias=True)
  (8): ReLU()
  (9): Linear(in_features=120, out_features=84, bias=True)
  (10): ReLU()
  (11): Linear(in_features=84, out_features=10, bias=True)
)",pytorch,mnist,15/49,CrossEntropyLoss(),"SGD (
Parameter Group 0
    dampening: 0
    initial_lr: 0.1
    lr: 0.0010000000000000002
    momentum: 0.9
    nesterov: False
    weight_decay: 0
)",<torch.optim.lr_scheduler.StepLR object at 0x7fdf8ebefb50>,0.019,0.9943,0.0393,0.9878,1635788801,0m 10s
"Sequential(
  (0): Conv2d(1, 6, kernel_size=(5, 5), stride=(1, 1), padding=(2, 2))
  (1): ReLU()
  (2): AvgPool2d(kernel_size=2, stride=2, padding=0)
  (3): Conv2d(6, 16, kernel_size=(5, 5), stride=(1, 1))
  (4): ReLU()
  (5): AvgPool2d(kernel_size=2, stride=2, padding=0)
  (6): Flatten(start_dim=1, end_dim=-1)
  (7): Linear(in_features=400, out_features=120, bias=True)
  (8): ReLU()
  (9): Linear(in_features=120, out_features=84, bias=True)
  (10): ReLU()
  (11): Linear(in_features=84, out_features=10, bias=True)
)",pytorch,mnist,16/49,CrossEntropyLoss(),"SGD (
Parameter Group 0
    dampening: 0
    initial_lr: 0.1
    lr: 0.0010000000000000002
    momentum: 0.9
    nesterov: False
    weight_decay: 0
)",<torch.optim.lr_scheduler.StepLR object at 0x7fdf8ebefb50>,0.0188,0.9944,0.0393,0.9881,1635788811,0m 10s
"Sequential(
  (0): Conv2d(1, 6, kernel_size=(5, 5), stride=(1, 1), padding=(2, 2))
  (1): ReLU()
  (2): AvgPool2d(kernel_size=2, stride=2, padding=0)
  (3): Conv2d(6, 16, kernel_size=(5, 5), stride=(1, 1))
  (4): ReLU()
  (5): AvgPool2d(kernel_size=2, stride=2, padding=0)
  (6): Flatten(start_dim=1, end_dim=-1)
  (7): Linear(in_features=400, out_features=120, bias=True)
  (8): ReLU()
  (9): Linear(in_features=120, out_features=84, bias=True)
  (10): ReLU()
  (11): Linear(in_features=84, out_features=10, bias=True)
)",pytorch,mnist,17/49,CrossEntropyLoss(),"SGD (
Parameter Group 0
    dampening: 0
    initial_lr: 0.1
    lr: 0.0010000000000000002
    momentum: 0.9
    nesterov: False
    weight_decay: 0
)",<torch.optim.lr_scheduler.StepLR object at 0x7fdf8ebefb50>,0.0186,0.9944,0.0393,0.9881,1635788823,0m 11s
"Sequential(
  (0): Conv2d(1, 6, kernel_size=(5, 5), stride=(1, 1), padding=(2, 2))
  (1): ReLU()
  (2): AvgPool2d(kernel_size=2, stride=2, padding=0)
  (3): Conv2d(6, 16, kernel_size=(5, 5), stride=(1, 1))
  (4): ReLU()
  (5): AvgPool2d(kernel_size=2, stride=2, padding=0)
  (6): Flatten(start_dim=1, end_dim=-1)
  (7): Linear(in_features=400, out_features=120, bias=True)
  (8): ReLU()
  (9): Linear(in_features=120, out_features=84, bias=True)
  (10): ReLU()
  (11): Linear(in_features=84, out_features=10, bias=True)
)",pytorch,mnist,18/49,CrossEntropyLoss(),"SGD (
Parameter Group 0
    dampening: 0
    initial_lr: 0.1
    lr: 0.0010000000000000002
    momentum: 0.9
    nesterov: False
    weight_decay: 0
)",<torch.optim.lr_scheduler.StepLR object at 0x7fdf8ebefb50>,0.0185,0.9944,0.0393,0.9882,1635788834,0m 11s
"Sequential(
  (0): Conv2d(1, 6, kernel_size=(5, 5), stride=(1, 1), padding=(2, 2))
  (1): ReLU()
  (2): AvgPool2d(kernel_size=2, stride=2, padding=0)
  (3): Conv2d(6, 16, kernel_size=(5, 5), stride=(1, 1))
  (4): ReLU()
  (5): AvgPool2d(kernel_size=2, stride=2, padding=0)
  (6): Flatten(start_dim=1, end_dim=-1)
  (7): Linear(in_features=400, out_features=120, bias=True)
  (8): ReLU()
  (9): Linear(in_features=120, out_features=84, bias=True)
  (10): ReLU()
  (11): Linear(in_features=84, out_features=10, bias=True)
)",pytorch,mnist,19/49,CrossEntropyLoss(),"SGD (
Parameter Group 0
    dampening: 0
    initial_lr: 0.1
    lr: 0.0010000000000000002
    momentum: 0.9
    nesterov: False
    weight_decay: 0
)",<torch.optim.lr_scheduler.StepLR object at 0x7fdf8ebefb50>,0.0184,0.9945,0.0393,0.9882,1635788844,0m 10s
"Sequential(
  (0): Conv2d(1, 6, kernel_size=(5, 5), stride=(1, 1), padding=(2, 2))
  (1): ReLU()
  (2): AvgPool2d(kernel_size=2, stride=2, padding=0)
  (3): Conv2d(6, 16, kernel_size=(5, 5), stride=(1, 1))
  (4): ReLU()
  (5): AvgPool2d(kernel_size=2, stride=2, padding=0)
  (6): Flatten(start_dim=1, end_dim=-1)
  (7): Linear(in_features=400, out_features=120, bias=True)
  (8): ReLU()
  (9): Linear(in_features=120, out_features=84, bias=True)
  (10): ReLU()
  (11): Linear(in_features=84, out_features=10, bias=True)
)",pytorch,mnist,20/49,CrossEntropyLoss(),"SGD (
Parameter Group 0
    dampening: 0
    initial_lr: 0.1
    lr: 0.00010000000000000003
    momentum: 0.9
    nesterov: False
    weight_decay: 0
)",<torch.optim.lr_scheduler.StepLR object at 0x7fdf8ebefb50>,0.0183,0.9945,0.0393,0.9882,1635788854,0m 10s
"Sequential(
  (0): Conv2d(1, 6, kernel_size=(5, 5), stride=(1, 1), padding=(2, 2))
  (1): ReLU()
  (2): AvgPool2d(kernel_size=2, stride=2, padding=0)
  (3): Conv2d(6, 16, kernel_size=(5, 5), stride=(1, 1))
  (4): ReLU()
  (5): AvgPool2d(kernel_size=2, stride=2, padding=0)
  (6): Flatten(start_dim=1, end_dim=-1)
  (7): Linear(in_features=400, out_features=120, bias=True)
  (8): ReLU()
  (9): Linear(in_features=120, out_features=84, bias=True)
  (10): ReLU()
  (11): Linear(in_features=84, out_features=10, bias=True)
)",pytorch,mnist,21/49,CrossEntropyLoss(),"SGD (
Parameter Group 0
    dampening: 0
    initial_lr: 0.1
    lr: 0.00010000000000000003
    momentum: 0.9
    nesterov: False
    weight_decay: 0
)",<torch.optim.lr_scheduler.StepLR object at 0x7fdf8ebefb50>,0.018,0.9947,0.0393,0.9882,1635788864,0m 10s
"Sequential(
  (0): Conv2d(1, 6, kernel_size=(5, 5), stride=(1, 1), padding=(2, 2))
  (1): ReLU()
  (2): AvgPool2d(kernel_size=2, stride=2, padding=0)
  (3): Conv2d(6, 16, kernel_size=(5, 5), stride=(1, 1))
  (4): ReLU()
  (5): AvgPool2d(kernel_size=2, stride=2, padding=0)
  (6): Flatten(start_dim=1, end_dim=-1)
  (7): Linear(in_features=400, out_features=120, bias=True)
  (8): ReLU()
  (9): Linear(in_features=120, out_features=84, bias=True)
  (10): ReLU()
  (11): Linear(in_features=84, out_features=10, bias=True)
)",pytorch,mnist,22/49,CrossEntropyLoss(),"SGD (
Parameter Group 0
    dampening: 0
    initial_lr: 0.1
    lr: 0.00010000000000000003
    momentum: 0.9
    nesterov: False
    weight_decay: 0
)",<torch.optim.lr_scheduler.StepLR object at 0x7fdf8ebefb50>,0.018,0.9947,0.0394,0.9882,1635788874,0m 10s
"Sequential(
  (0): Conv2d(1, 6, kernel_size=(5, 5), stride=(1, 1), padding=(2, 2))
  (1): ReLU()
  (2): AvgPool2d(kernel_size=2, stride=2, padding=0)
  (3): Conv2d(6, 16, kernel_size=(5, 5), stride=(1, 1))
  (4): ReLU()
  (5): AvgPool2d(kernel_size=2, stride=2, padding=0)
  (6): Flatten(start_dim=1, end_dim=-1)
  (7): Linear(in_features=400, out_features=120, bias=True)
  (8): ReLU()
  (9): Linear(in_features=120, out_features=84, bias=True)
  (10): ReLU()
  (11): Linear(in_features=84, out_features=10, bias=True)
)",pytorch,mnist,23/49,CrossEntropyLoss(),"SGD (
Parameter Group 0
    dampening: 0
    initial_lr: 0.1
    lr: 0.00010000000000000003
    momentum: 0.9
    nesterov: False
    weight_decay: 0
)",<torch.optim.lr_scheduler.StepLR object at 0x7fdf8ebefb50>,0.018,0.9947,0.0394,0.9882,1635788884,0m 10s
"Sequential(
  (0): Conv2d(1, 6, kernel_size=(5, 5), stride=(1, 1), padding=(2, 2))
  (1): ReLU()
  (2): AvgPool2d(kernel_size=2, stride=2, padding=0)
  (3): Conv2d(6, 16, kernel_size=(5, 5), stride=(1, 1))
  (4): ReLU()
  (5): AvgPool2d(kernel_size=2, stride=2, padding=0)
  (6): Flatten(start_dim=1, end_dim=-1)
  (7): Linear(in_features=400, out_features=120, bias=True)
  (8): ReLU()
  (9): Linear(in_features=120, out_features=84, bias=True)
  (10): ReLU()
  (11): Linear(in_features=84, out_features=10, bias=True)
)",pytorch,mnist,24/49,CrossEntropyLoss(),"SGD (
Parameter Group 0
    dampening: 0
    initial_lr: 0.1
    lr: 0.00010000000000000003
    momentum: 0.9
    nesterov: False
    weight_decay: 0
)",<torch.optim.lr_scheduler.StepLR object at 0x7fdf8ebefb50>,0.0179,0.9946,0.0394,0.9882,1635788894,0m 10s
"Sequential(
  (0): Conv2d(1, 6, kernel_size=(5, 5), stride=(1, 1), padding=(2, 2))
  (1): ReLU()
  (2): AvgPool2d(kernel_size=2, stride=2, padding=0)
  (3): Conv2d(6, 16, kernel_size=(5, 5), stride=(1, 1))
  (4): ReLU()
  (5): AvgPool2d(kernel_size=2, stride=2, padding=0)
  (6): Flatten(start_dim=1, end_dim=-1)
  (7): Linear(in_features=400, out_features=120, bias=True)
  (8): ReLU()
  (9): Linear(in_features=120, out_features=84, bias=True)
  (10): ReLU()
  (11): Linear(in_features=84, out_features=10, bias=True)
)",pytorch,mnist,25/49,CrossEntropyLoss(),"SGD (
Parameter Group 0
    dampening: 0
    initial_lr: 0.1
    lr: 0.00010000000000000003
    momentum: 0.9
    nesterov: False
    weight_decay: 0
)",<torch.optim.lr_scheduler.StepLR object at 0x7fdf8ebefb50>,0.0179,0.9946,0.0395,0.9883,1635788904,0m 10s
"Sequential(
  (0): Conv2d(1, 6, kernel_size=(5, 5), stride=(1, 1), padding=(2, 2))
  (1): ReLU()
  (2): AvgPool2d(kernel_size=2, stride=2, padding=0)
  (3): Conv2d(6, 16, kernel_size=(5, 5), stride=(1, 1))
  (4): ReLU()
  (5): AvgPool2d(kernel_size=2, stride=2, padding=0)
  (6): Flatten(start_dim=1, end_dim=-1)
  (7): Linear(in_features=400, out_features=120, bias=True)
  (8): ReLU()
  (9): Linear(in_features=120, out_features=84, bias=True)
  (10): ReLU()
  (11): Linear(in_features=84, out_features=10, bias=True)
)",pytorch,mnist,26/49,CrossEntropyLoss(),"SGD (
Parameter Group 0
    dampening: 0
    initial_lr: 0.1
    lr: 0.00010000000000000003
    momentum: 0.9
    nesterov: False
    weight_decay: 0
)",<torch.optim.lr_scheduler.StepLR object at 0x7fdf8ebefb50>,0.0179,0.9946,0.0395,0.9884,1635788914,0m 10s
"Sequential(
  (0): Conv2d(1, 6, kernel_size=(5, 5), stride=(1, 1), padding=(2, 2))
  (1): ReLU()
  (2): AvgPool2d(kernel_size=2, stride=2, padding=0)
  (3): Conv2d(6, 16, kernel_size=(5, 5), stride=(1, 1))
  (4): ReLU()
  (5): AvgPool2d(kernel_size=2, stride=2, padding=0)
  (6): Flatten(start_dim=1, end_dim=-1)
  (7): Linear(in_features=400, out_features=120, bias=True)
  (8): ReLU()
  (9): Linear(in_features=120, out_features=84, bias=True)
  (10): ReLU()
  (11): Linear(in_features=84, out_features=10, bias=True)
)",pytorch,mnist,27/49,CrossEntropyLoss(),"SGD (
Parameter Group 0
    dampening: 0
    initial_lr: 0.1
    lr: 1.0000000000000004e-05
    momentum: 0.9
    nesterov: False
    weight_decay: 0
)",<torch.optim.lr_scheduler.StepLR object at 0x7fdf8ebefb50>,0.0179,0.9946,0.0395,0.9884,1635788924,0m 10s
"Sequential(
  (0): Conv2d(1, 6, kernel_size=(5, 5), stride=(1, 1), padding=(2, 2))
  (1): ReLU()
  (2): AvgPool2d(kernel_size=2, stride=2, padding=0)
  (3): Conv2d(6, 16, kernel_size=(5, 5), stride=(1, 1))
  (4): ReLU()
  (5): AvgPool2d(kernel_size=2, stride=2, padding=0)
  (6): Flatten(start_dim=1, end_dim=-1)
  (7): Linear(in_features=400, out_features=120, bias=True)
  (8): ReLU()
  (9): Linear(in_features=120, out_features=84, bias=True)
  (10): ReLU()
  (11): Linear(in_features=84, out_features=10, bias=True)
)",pytorch,mnist,28/49,CrossEntropyLoss(),"SGD (
Parameter Group 0
    dampening: 0
    initial_lr: 0.1
    lr: 1.0000000000000004e-05
    momentum: 0.9
    nesterov: False
    weight_decay: 0
)",<torch.optim.lr_scheduler.StepLR object at 0x7fdf8ebefb50>,0.0179,0.9947,0.0395,0.9884,1635788934,0m 10s
"Sequential(
  (0): Conv2d(1, 6, kernel_size=(5, 5), stride=(1, 1), padding=(2, 2))
  (1): ReLU()
  (2): AvgPool2d(kernel_size=2, stride=2, padding=0)
  (3): Conv2d(6, 16, kernel_size=(5, 5), stride=(1, 1))
  (4): ReLU()
  (5): AvgPool2d(kernel_size=2, stride=2, padding=0)
  (6): Flatten(start_dim=1, end_dim=-1)
  (7): Linear(in_features=400, out_features=120, bias=True)
  (8): ReLU()
  (9): Linear(in_features=120, out_features=84, bias=True)
  (10): ReLU()
  (11): Linear(in_features=84, out_features=10, bias=True)
)",pytorch,mnist,29/49,CrossEntropyLoss(),"SGD (
Parameter Group 0
    dampening: 0
    initial_lr: 0.1
    lr: 1.0000000000000004e-05
    momentum: 0.9
    nesterov: False
    weight_decay: 0
)",<torch.optim.lr_scheduler.StepLR object at 0x7fdf8ebefb50>,0.0179,0.9947,0.0395,0.9884,1635788944,0m 10s
"Sequential(
  (0): Conv2d(1, 6, kernel_size=(5, 5), stride=(1, 1), padding=(2, 2))
  (1): ReLU()
  (2): AvgPool2d(kernel_size=2, stride=2, padding=0)
  (3): Conv2d(6, 16, kernel_size=(5, 5), stride=(1, 1))
  (4): ReLU()
  (5): AvgPool2d(kernel_size=2, stride=2, padding=0)
  (6): Flatten(start_dim=1, end_dim=-1)
  (7): Linear(in_features=400, out_features=120, bias=True)
  (8): ReLU()
  (9): Linear(in_features=120, out_features=84, bias=True)
  (10): ReLU()
  (11): Linear(in_features=84, out_features=10, bias=True)
)",pytorch,mnist,30/49,CrossEntropyLoss(),"SGD (
Parameter Group 0
    dampening: 0
    initial_lr: 0.1
    lr: 1.0000000000000004e-05
    momentum: 0.9
    nesterov: False
    weight_decay: 0
)",<torch.optim.lr_scheduler.StepLR object at 0x7fdf8ebefb50>,0.0179,0.9947,0.0395,0.9884,1635788954,0m 10s
"Sequential(
  (0): Conv2d(1, 6, kernel_size=(5, 5), stride=(1, 1), padding=(2, 2))
  (1): ReLU()
  (2): AvgPool2d(kernel_size=2, stride=2, padding=0)
  (3): Conv2d(6, 16, kernel_size=(5, 5), stride=(1, 1))
  (4): ReLU()
  (5): AvgPool2d(kernel_size=2, stride=2, padding=0)
  (6): Flatten(start_dim=1, end_dim=-1)
  (7): Linear(in_features=400, out_features=120, bias=True)
  (8): ReLU()
  (9): Linear(in_features=120, out_features=84, bias=True)
  (10): ReLU()
  (11): Linear(in_features=84, out_features=10, bias=True)
)",pytorch,mnist,31/49,CrossEntropyLoss(),"SGD (
Parameter Group 0
    dampening: 0
    initial_lr: 0.1
    lr: 1.0000000000000004e-05
    momentum: 0.9
    nesterov: False
    weight_decay: 0
)",<torch.optim.lr_scheduler.StepLR object at 0x7fdf8ebefb50>,0.0179,0.9947,0.0395,0.9884,1635788964,0m 10s
"Sequential(
  (0): Conv2d(1, 6, kernel_size=(5, 5), stride=(1, 1), padding=(2, 2))
  (1): ReLU()
  (2): AvgPool2d(kernel_size=2, stride=2, padding=0)
  (3): Conv2d(6, 16, kernel_size=(5, 5), stride=(1, 1))
  (4): ReLU()
  (5): AvgPool2d(kernel_size=2, stride=2, padding=0)
  (6): Flatten(start_dim=1, end_dim=-1)
  (7): Linear(in_features=400, out_features=120, bias=True)
  (8): ReLU()
  (9): Linear(in_features=120, out_features=84, bias=True)
  (10): ReLU()
  (11): Linear(in_features=84, out_features=10, bias=True)
)",pytorch,mnist,32/49,CrossEntropyLoss(),"SGD (
Parameter Group 0
    dampening: 0
    initial_lr: 0.1
    lr: 1.0000000000000004e-05
    momentum: 0.9
    nesterov: False
    weight_decay: 0
)",<torch.optim.lr_scheduler.StepLR object at 0x7fdf8ebefb50>,0.0179,0.9947,0.0395,0.9884,1635788974,0m 10s
"Sequential(
  (0): Conv2d(1, 6, kernel_size=(5, 5), stride=(1, 1), padding=(2, 2))
  (1): ReLU()
  (2): AvgPool2d(kernel_size=2, stride=2, padding=0)
  (3): Conv2d(6, 16, kernel_size=(5, 5), stride=(1, 1))
  (4): ReLU()
  (5): AvgPool2d(kernel_size=2, stride=2, padding=0)
  (6): Flatten(start_dim=1, end_dim=-1)
  (7): Linear(in_features=400, out_features=120, bias=True)
  (8): ReLU()
  (9): Linear(in_features=120, out_features=84, bias=True)
  (10): ReLU()
  (11): Linear(in_features=84, out_features=10, bias=True)
)",pytorch,mnist,33/49,CrossEntropyLoss(),"SGD (
Parameter Group 0
    dampening: 0
    initial_lr: 0.1
    lr: 1.0000000000000004e-05
    momentum: 0.9
    nesterov: False
    weight_decay: 0
)",<torch.optim.lr_scheduler.StepLR object at 0x7fdf8ebefb50>,0.0179,0.9947,0.0395,0.9884,1635788984,0m 10s
"Sequential(
  (0): Conv2d(1, 6, kernel_size=(5, 5), stride=(1, 1), padding=(2, 2))
  (1): ReLU()
  (2): AvgPool2d(kernel_size=2, stride=2, padding=0)
  (3): Conv2d(6, 16, kernel_size=(5, 5), stride=(1, 1))
  (4): ReLU()
  (5): AvgPool2d(kernel_size=2, stride=2, padding=0)
  (6): Flatten(start_dim=1, end_dim=-1)
  (7): Linear(in_features=400, out_features=120, bias=True)
  (8): ReLU()
  (9): Linear(in_features=120, out_features=84, bias=True)
  (10): ReLU()
  (11): Linear(in_features=84, out_features=10, bias=True)
)",pytorch,mnist,34/49,CrossEntropyLoss(),"SGD (
Parameter Group 0
    dampening: 0
    initial_lr: 0.1
    lr: 1.0000000000000004e-06
    momentum: 0.9
    nesterov: False
    weight_decay: 0
)",<torch.optim.lr_scheduler.StepLR object at 0x7fdf8ebefb50>,0.0179,0.9947,0.0395,0.9884,1635788994,0m 10s
"Sequential(
  (0): Conv2d(1, 6, kernel_size=(5, 5), stride=(1, 1), padding=(2, 2))
  (1): ReLU()
  (2): AvgPool2d(kernel_size=2, stride=2, padding=0)
  (3): Conv2d(6, 16, kernel_size=(5, 5), stride=(1, 1))
  (4): ReLU()
  (5): AvgPool2d(kernel_size=2, stride=2, padding=0)
  (6): Flatten(start_dim=1, end_dim=-1)
  (7): Linear(in_features=400, out_features=120, bias=True)
  (8): ReLU()
  (9): Linear(in_features=120, out_features=84, bias=True)
  (10): ReLU()
  (11): Linear(in_features=84, out_features=10, bias=True)
)",pytorch,mnist,35/49,CrossEntropyLoss(),"SGD (
Parameter Group 0
    dampening: 0
    initial_lr: 0.1
    lr: 1.0000000000000004e-06
    momentum: 0.9
    nesterov: False
    weight_decay: 0
)",<torch.optim.lr_scheduler.StepLR object at 0x7fdf8ebefb50>,0.0179,0.9947,0.0395,0.9884,1635789004,0m 10s
"Sequential(
  (0): Conv2d(1, 6, kernel_size=(5, 5), stride=(1, 1), padding=(2, 2))
  (1): ReLU()
  (2): AvgPool2d(kernel_size=2, stride=2, padding=0)
  (3): Conv2d(6, 16, kernel_size=(5, 5), stride=(1, 1))
  (4): ReLU()
  (5): AvgPool2d(kernel_size=2, stride=2, padding=0)
  (6): Flatten(start_dim=1, end_dim=-1)
  (7): Linear(in_features=400, out_features=120, bias=True)
  (8): ReLU()
  (9): Linear(in_features=120, out_features=84, bias=True)
  (10): ReLU()
  (11): Linear(in_features=84, out_features=10, bias=True)
)",pytorch,mnist,36/49,CrossEntropyLoss(),"SGD (
Parameter Group 0
    dampening: 0
    initial_lr: 0.1
    lr: 1.0000000000000004e-06
    momentum: 0.9
    nesterov: False
    weight_decay: 0
)",<torch.optim.lr_scheduler.StepLR object at 0x7fdf8ebefb50>,0.0178,0.9947,0.0395,0.9884,1635789014,0m 10s
"Sequential(
  (0): Conv2d(1, 6, kernel_size=(5, 5), stride=(1, 1), padding=(2, 2))
  (1): ReLU()
  (2): AvgPool2d(kernel_size=2, stride=2, padding=0)
  (3): Conv2d(6, 16, kernel_size=(5, 5), stride=(1, 1))
  (4): ReLU()
  (5): AvgPool2d(kernel_size=2, stride=2, padding=0)
  (6): Flatten(start_dim=1, end_dim=-1)
  (7): Linear(in_features=400, out_features=120, bias=True)
  (8): ReLU()
  (9): Linear(in_features=120, out_features=84, bias=True)
  (10): ReLU()
  (11): Linear(in_features=84, out_features=10, bias=True)
)",pytorch,mnist,37/49,CrossEntropyLoss(),"SGD (
Parameter Group 0
    dampening: 0
    initial_lr: 0.1
    lr: 1.0000000000000004e-06
    momentum: 0.9
    nesterov: False
    weight_decay: 0
)",<torch.optim.lr_scheduler.StepLR object at 0x7fdf8ebefb50>,0.0178,0.9947,0.0395,0.9884,1635789024,0m 10s
"Sequential(
  (0): Conv2d(1, 6, kernel_size=(5, 5), stride=(1, 1), padding=(2, 2))
  (1): ReLU()
  (2): AvgPool2d(kernel_size=2, stride=2, padding=0)
  (3): Conv2d(6, 16, kernel_size=(5, 5), stride=(1, 1))
  (4): ReLU()
  (5): AvgPool2d(kernel_size=2, stride=2, padding=0)
  (6): Flatten(start_dim=1, end_dim=-1)
  (7): Linear(in_features=400, out_features=120, bias=True)
  (8): ReLU()
  (9): Linear(in_features=120, out_features=84, bias=True)
  (10): ReLU()
  (11): Linear(in_features=84, out_features=10, bias=True)
)",pytorch,mnist,38/49,CrossEntropyLoss(),"SGD (
Parameter Group 0
    dampening: 0
    initial_lr: 0.1
    lr: 1.0000000000000004e-06
    momentum: 0.9
    nesterov: False
    weight_decay: 0
)",<torch.optim.lr_scheduler.StepLR object at 0x7fdf8ebefb50>,0.0178,0.9947,0.0395,0.9884,1635789034,0m 10s
"Sequential(
  (0): Conv2d(1, 6, kernel_size=(5, 5), stride=(1, 1), padding=(2, 2))
  (1): ReLU()
  (2): AvgPool2d(kernel_size=2, stride=2, padding=0)
  (3): Conv2d(6, 16, kernel_size=(5, 5), stride=(1, 1))
  (4): ReLU()
  (5): AvgPool2d(kernel_size=2, stride=2, padding=0)
  (6): Flatten(start_dim=1, end_dim=-1)
  (7): Linear(in_features=400, out_features=120, bias=True)
  (8): ReLU()
  (9): Linear(in_features=120, out_features=84, bias=True)
  (10): ReLU()
  (11): Linear(in_features=84, out_features=10, bias=True)
)",pytorch,mnist,39/49,CrossEntropyLoss(),"SGD (
Parameter Group 0
    dampening: 0
    initial_lr: 0.1
    lr: 1.0000000000000004e-06
    momentum: 0.9
    nesterov: False
    weight_decay: 0
)",<torch.optim.lr_scheduler.StepLR object at 0x7fdf8ebefb50>,0.0178,0.9947,0.0395,0.9884,1635789044,0m 10s
"Sequential(
  (0): Conv2d(1, 6, kernel_size=(5, 5), stride=(1, 1), padding=(2, 2))
  (1): ReLU()
  (2): AvgPool2d(kernel_size=2, stride=2, padding=0)
  (3): Conv2d(6, 16, kernel_size=(5, 5), stride=(1, 1))
  (4): ReLU()
  (5): AvgPool2d(kernel_size=2, stride=2, padding=0)
  (6): Flatten(start_dim=1, end_dim=-1)
  (7): Linear(in_features=400, out_features=120, bias=True)
  (8): ReLU()
  (9): Linear(in_features=120, out_features=84, bias=True)
  (10): ReLU()
  (11): Linear(in_features=84, out_features=10, bias=True)
)",pytorch,mnist,40/49,CrossEntropyLoss(),"SGD (
Parameter Group 0
    dampening: 0
    initial_lr: 0.1
    lr: 1.0000000000000004e-06
    momentum: 0.9
    nesterov: False
    weight_decay: 0
)",<torch.optim.lr_scheduler.StepLR object at 0x7fdf8ebefb50>,0.0178,0.9947,0.0395,0.9884,1635789054,0m 10s
"Sequential(
  (0): Conv2d(1, 6, kernel_size=(5, 5), stride=(1, 1), padding=(2, 2))
  (1): ReLU()
  (2): AvgPool2d(kernel_size=2, stride=2, padding=0)
  (3): Conv2d(6, 16, kernel_size=(5, 5), stride=(1, 1))
  (4): ReLU()
  (5): AvgPool2d(kernel_size=2, stride=2, padding=0)
  (6): Flatten(start_dim=1, end_dim=-1)
  (7): Linear(in_features=400, out_features=120, bias=True)
  (8): ReLU()
  (9): Linear(in_features=120, out_features=84, bias=True)
  (10): ReLU()
  (11): Linear(in_features=84, out_features=10, bias=True)
)",pytorch,mnist,41/49,CrossEntropyLoss(),"SGD (
Parameter Group 0
    dampening: 0
    initial_lr: 0.1
    lr: 1.0000000000000005e-07
    momentum: 0.9
    nesterov: False
    weight_decay: 0
)",<torch.optim.lr_scheduler.StepLR object at 0x7fdf8ebefb50>,0.0178,0.9947,0.0395,0.9884,1635789064,0m 10s
"Sequential(
  (0): Conv2d(1, 6, kernel_size=(5, 5), stride=(1, 1), padding=(2, 2))
  (1): ReLU()
  (2): AvgPool2d(kernel_size=2, stride=2, padding=0)
  (3): Conv2d(6, 16, kernel_size=(5, 5), stride=(1, 1))
  (4): ReLU()
  (5): AvgPool2d(kernel_size=2, stride=2, padding=0)
  (6): Flatten(start_dim=1, end_dim=-1)
  (7): Linear(in_features=400, out_features=120, bias=True)
  (8): ReLU()
  (9): Linear(in_features=120, out_features=84, bias=True)
  (10): ReLU()
  (11): Linear(in_features=84, out_features=10, bias=True)
)",pytorch,mnist,42/49,CrossEntropyLoss(),"SGD (
Parameter Group 0
    dampening: 0
    initial_lr: 0.1
    lr: 1.0000000000000005e-07
    momentum: 0.9
    nesterov: False
    weight_decay: 0
)",<torch.optim.lr_scheduler.StepLR object at 0x7fdf8ebefb50>,0.0178,0.9947,0.0395,0.9884,1635789074,0m 10s
"Sequential(
  (0): Conv2d(1, 6, kernel_size=(5, 5), stride=(1, 1), padding=(2, 2))
  (1): ReLU()
  (2): AvgPool2d(kernel_size=2, stride=2, padding=0)
  (3): Conv2d(6, 16, kernel_size=(5, 5), stride=(1, 1))
  (4): ReLU()
  (5): AvgPool2d(kernel_size=2, stride=2, padding=0)
  (6): Flatten(start_dim=1, end_dim=-1)
  (7): Linear(in_features=400, out_features=120, bias=True)
  (8): ReLU()
  (9): Linear(in_features=120, out_features=84, bias=True)
  (10): ReLU()
  (11): Linear(in_features=84, out_features=10, bias=True)
)",pytorch,mnist,43/49,CrossEntropyLoss(),"SGD (
Parameter Group 0
    dampening: 0
    initial_lr: 0.1
    lr: 1.0000000000000005e-07
    momentum: 0.9
    nesterov: False
    weight_decay: 0
)",<torch.optim.lr_scheduler.StepLR object at 0x7fdf8ebefb50>,0.0178,0.9947,0.0395,0.9884,1635789084,0m 10s
"Sequential(
  (0): Conv2d(1, 6, kernel_size=(5, 5), stride=(1, 1), padding=(2, 2))
  (1): ReLU()
  (2): AvgPool2d(kernel_size=2, stride=2, padding=0)
  (3): Conv2d(6, 16, kernel_size=(5, 5), stride=(1, 1))
  (4): ReLU()
  (5): AvgPool2d(kernel_size=2, stride=2, padding=0)
  (6): Flatten(start_dim=1, end_dim=-1)
  (7): Linear(in_features=400, out_features=120, bias=True)
  (8): ReLU()
  (9): Linear(in_features=120, out_features=84, bias=True)
  (10): ReLU()
  (11): Linear(in_features=84, out_features=10, bias=True)
)",pytorch,mnist,44/49,CrossEntropyLoss(),"SGD (
Parameter Group 0
    dampening: 0
    initial_lr: 0.1
    lr: 1.0000000000000005e-07
    momentum: 0.9
    nesterov: False
    weight_decay: 0
)",<torch.optim.lr_scheduler.StepLR object at 0x7fdf8ebefb50>,0.0178,0.9947,0.0395,0.9884,1635789094,0m 10s
"Sequential(
  (0): Conv2d(1, 6, kernel_size=(5, 5), stride=(1, 1), padding=(2, 2))
  (1): ReLU()
  (2): AvgPool2d(kernel_size=2, stride=2, padding=0)
  (3): Conv2d(6, 16, kernel_size=(5, 5), stride=(1, 1))
  (4): ReLU()
  (5): AvgPool2d(kernel_size=2, stride=2, padding=0)
  (6): Flatten(start_dim=1, end_dim=-1)
  (7): Linear(in_features=400, out_features=120, bias=True)
  (8): ReLU()
  (9): Linear(in_features=120, out_features=84, bias=True)
  (10): ReLU()
  (11): Linear(in_features=84, out_features=10, bias=True)
)",pytorch,mnist,45/49,CrossEntropyLoss(),"SGD (
Parameter Group 0
    dampening: 0
    initial_lr: 0.1
    lr: 1.0000000000000005e-07
    momentum: 0.9
    nesterov: False
    weight_decay: 0
)",<torch.optim.lr_scheduler.StepLR object at 0x7fdf8ebefb50>,0.0178,0.9947,0.0395,0.9884,1635789104,0m 10s
"Sequential(
  (0): Conv2d(1, 6, kernel_size=(5, 5), stride=(1, 1), padding=(2, 2))
  (1): ReLU()
  (2): AvgPool2d(kernel_size=2, stride=2, padding=0)
  (3): Conv2d(6, 16, kernel_size=(5, 5), stride=(1, 1))
  (4): ReLU()
  (5): AvgPool2d(kernel_size=2, stride=2, padding=0)
  (6): Flatten(start_dim=1, end_dim=-1)
  (7): Linear(in_features=400, out_features=120, bias=True)
  (8): ReLU()
  (9): Linear(in_features=120, out_features=84, bias=True)
  (10): ReLU()
  (11): Linear(in_features=84, out_features=10, bias=True)
)",pytorch,mnist,46/49,CrossEntropyLoss(),"SGD (
Parameter Group 0
    dampening: 0
    initial_lr: 0.1
    lr: 1.0000000000000005e-07
    momentum: 0.9
    nesterov: False
    weight_decay: 0
)",<torch.optim.lr_scheduler.StepLR object at 0x7fdf8ebefb50>,0.0178,0.9947,0.0395,0.9884,1635789114,0m 10s
"Sequential(
  (0): Conv2d(1, 6, kernel_size=(5, 5), stride=(1, 1), padding=(2, 2))
  (1): ReLU()
  (2): AvgPool2d(kernel_size=2, stride=2, padding=0)
  (3): Conv2d(6, 16, kernel_size=(5, 5), stride=(1, 1))
  (4): ReLU()
  (5): AvgPool2d(kernel_size=2, stride=2, padding=0)
  (6): Flatten(start_dim=1, end_dim=-1)
  (7): Linear(in_features=400, out_features=120, bias=True)
  (8): ReLU()
  (9): Linear(in_features=120, out_features=84, bias=True)
  (10): ReLU()
  (11): Linear(in_features=84, out_features=10, bias=True)
)",pytorch,mnist,47/49,CrossEntropyLoss(),"SGD (
Parameter Group 0
    dampening: 0
    initial_lr: 0.1
    lr: 1.0000000000000005e-07
    momentum: 0.9
    nesterov: False
    weight_decay: 0
)",<torch.optim.lr_scheduler.StepLR object at 0x7fdf8ebefb50>,0.0178,0.9947,0.0395,0.9884,1635789124,0m 10s
"Sequential(
  (0): Conv2d(1, 6, kernel_size=(5, 5), stride=(1, 1), padding=(2, 2))
  (1): ReLU()
  (2): AvgPool2d(kernel_size=2, stride=2, padding=0)
  (3): Conv2d(6, 16, kernel_size=(5, 5), stride=(1, 1))
  (4): ReLU()
  (5): AvgPool2d(kernel_size=2, stride=2, padding=0)
  (6): Flatten(start_dim=1, end_dim=-1)
  (7): Linear(in_features=400, out_features=120, bias=True)
  (8): ReLU()
  (9): Linear(in_features=120, out_features=84, bias=True)
  (10): ReLU()
  (11): Linear(in_features=84, out_features=10, bias=True)
)",pytorch,mnist,48/49,CrossEntropyLoss(),"SGD (
Parameter Group 0
    dampening: 0
    initial_lr: 0.1
    lr: 1.0000000000000005e-08
    momentum: 0.9
    nesterov: False
    weight_decay: 0
)",<torch.optim.lr_scheduler.StepLR object at 0x7fdf8ebefb50>,0.0178,0.9947,0.0395,0.9884,1635789134,0m 10s
"Sequential(
  (0): Conv2d(1, 6, kernel_size=(5, 5), stride=(1, 1), padding=(2, 2))
  (1): ReLU()
  (2): AvgPool2d(kernel_size=2, stride=2, padding=0)
  (3): Conv2d(6, 16, kernel_size=(5, 5), stride=(1, 1))
  (4): ReLU()
  (5): AvgPool2d(kernel_size=2, stride=2, padding=0)
  (6): Flatten(start_dim=1, end_dim=-1)
  (7): Linear(in_features=400, out_features=120, bias=True)
  (8): ReLU()
  (9): Linear(in_features=120, out_features=84, bias=True)
  (10): ReLU()
  (11): Linear(in_features=84, out_features=10, bias=True)
)",pytorch,mnist,49/49,CrossEntropyLoss(),"SGD (
Parameter Group 0
    dampening: 0
    initial_lr: 0.1
    lr: 1.0000000000000005e-08
    momentum: 0.9
    nesterov: False
    weight_decay: 0
)",<torch.optim.lr_scheduler.StepLR object at 0x7fdf8ebefb50>,0.0178,0.9947,0.0395,0.9884,1635789144,0m 10s