Model,type,Dataset,Epoch,criterion,optimizer,scheduler,Train_loss,Train_acc,val_loss,Val_acc,time,Elasttime
"Sequential(
  (0): Conv2d(1, 6, kernel_size=(5, 5), stride=(1, 1), padding=(2, 2))
  (1): ReLU()
  (2): AvgPool2d(kernel_size=2, stride=2, padding=0)
  (3): Conv2d(6, 16, kernel_size=(5, 5), stride=(1, 1))
  (4): ReLU()
  (5): AvgPool2d(kernel_size=2, stride=2, padding=0)
  (6): Flatten(start_dim=1, end_dim=-1)
  (7): Linear(in_features=400, out_features=120, bias=True)
  (8): ReLU()
  (9): Linear(in_features=120, out_features=84, bias=True)
  (10): ReLU()
  (11): Linear(in_features=84, out_features=10, bias=True)
)",pytorch,mnist,0/49,CrossEntropyLoss(),"SGD (
Parameter Group 0
    dampening: 0
    initial_lr: 0.1
    lr: 0.1
    momentum: 0.9
    nesterov: False
    weight_decay: 0
)",<torch.optim.lr_scheduler.StepLR object at 0x7f7e6093a1c0>,0.6472,0.7811,0.186,0.9413,1635796130,0m 10s
"Sequential(
  (0): Conv2d(1, 6, kernel_size=(5, 5), stride=(1, 1), padding=(2, 2))
  (1): ReLU()
  (2): AvgPool2d(kernel_size=2, stride=2, padding=0)
  (3): Conv2d(6, 16, kernel_size=(5, 5), stride=(1, 1))
  (4): ReLU()
  (5): AvgPool2d(kernel_size=2, stride=2, padding=0)
  (6): Flatten(start_dim=1, end_dim=-1)
  (7): Linear(in_features=400, out_features=120, bias=True)
  (8): ReLU()
  (9): Linear(in_features=120, out_features=84, bias=True)
  (10): ReLU()
  (11): Linear(in_features=84, out_features=10, bias=True)
)",pytorch,mnist,1/49,CrossEntropyLoss(),"SGD (
Parameter Group 0
    dampening: 0
    initial_lr: 0.1
    lr: 0.1
    momentum: 0.9
    nesterov: False
    weight_decay: 0
)",<torch.optim.lr_scheduler.StepLR object at 0x7f7e6093a1c0>,0.1329,0.9598,0.1403,0.9573,1635796140,0m 10s
"Sequential(
  (0): Conv2d(1, 6, kernel_size=(5, 5), stride=(1, 1), padding=(2, 2))
  (1): ReLU()
  (2): AvgPool2d(kernel_size=2, stride=2, padding=0)
  (3): Conv2d(6, 16, kernel_size=(5, 5), stride=(1, 1))
  (4): ReLU()
  (5): AvgPool2d(kernel_size=2, stride=2, padding=0)
  (6): Flatten(start_dim=1, end_dim=-1)
  (7): Linear(in_features=400, out_features=120, bias=True)
  (8): ReLU()
  (9): Linear(in_features=120, out_features=84, bias=True)
  (10): ReLU()
  (11): Linear(in_features=84, out_features=10, bias=True)
)",pytorch,mnist,2/49,CrossEntropyLoss(),"SGD (
Parameter Group 0
    dampening: 0
    initial_lr: 0.1
    lr: 0.1
    momentum: 0.9
    nesterov: False
    weight_decay: 0
)",<torch.optim.lr_scheduler.StepLR object at 0x7f7e6093a1c0>,0.102,0.9696,0.0899,0.9727,1635796150,0m 10s
"Sequential(
  (0): Conv2d(1, 6, kernel_size=(5, 5), stride=(1, 1), padding=(2, 2))
  (1): ReLU()
  (2): AvgPool2d(kernel_size=2, stride=2, padding=0)
  (3): Conv2d(6, 16, kernel_size=(5, 5), stride=(1, 1))
  (4): ReLU()
  (5): AvgPool2d(kernel_size=2, stride=2, padding=0)
  (6): Flatten(start_dim=1, end_dim=-1)
  (7): Linear(in_features=400, out_features=120, bias=True)
  (8): ReLU()
  (9): Linear(in_features=120, out_features=84, bias=True)
  (10): ReLU()
  (11): Linear(in_features=84, out_features=10, bias=True)
)",pytorch,mnist,3/49,CrossEntropyLoss(),"SGD (
Parameter Group 0
    dampening: 0
    initial_lr: 0.1
    lr: 0.1
    momentum: 0.9
    nesterov: False
    weight_decay: 0
)",<torch.optim.lr_scheduler.StepLR object at 0x7f7e6093a1c0>,0.0808,0.9749,0.0788,0.9765,1635796161,0m 10s
"Sequential(
  (0): Conv2d(1, 6, kernel_size=(5, 5), stride=(1, 1), padding=(2, 2))
  (1): ReLU()
  (2): AvgPool2d(kernel_size=2, stride=2, padding=0)
  (3): Conv2d(6, 16, kernel_size=(5, 5), stride=(1, 1))
  (4): ReLU()
  (5): AvgPool2d(kernel_size=2, stride=2, padding=0)
  (6): Flatten(start_dim=1, end_dim=-1)
  (7): Linear(in_features=400, out_features=120, bias=True)
  (8): ReLU()
  (9): Linear(in_features=120, out_features=84, bias=True)
  (10): ReLU()
  (11): Linear(in_features=84, out_features=10, bias=True)
)",pytorch,mnist,4/49,CrossEntropyLoss(),"SGD (
Parameter Group 0
    dampening: 0
    initial_lr: 0.1
    lr: 0.1
    momentum: 0.9
    nesterov: False
    weight_decay: 0
)",<torch.optim.lr_scheduler.StepLR object at 0x7f7e6093a1c0>,0.0741,0.9778,0.0964,0.9749,1635796171,0m 10s
"Sequential(
  (0): Conv2d(1, 6, kernel_size=(5, 5), stride=(1, 1), padding=(2, 2))
  (1): ReLU()
  (2): AvgPool2d(kernel_size=2, stride=2, padding=0)
  (3): Conv2d(6, 16, kernel_size=(5, 5), stride=(1, 1))
  (4): ReLU()
  (5): AvgPool2d(kernel_size=2, stride=2, padding=0)
  (6): Flatten(start_dim=1, end_dim=-1)
  (7): Linear(in_features=400, out_features=120, bias=True)
  (8): ReLU()
  (9): Linear(in_features=120, out_features=84, bias=True)
  (10): ReLU()
  (11): Linear(in_features=84, out_features=10, bias=True)
)",pytorch,mnist,5/49,CrossEntropyLoss(),"SGD (
Parameter Group 0
    dampening: 0
    initial_lr: 0.1
    lr: 0.1
    momentum: 0.9
    nesterov: False
    weight_decay: 0
)",<torch.optim.lr_scheduler.StepLR object at 0x7f7e6093a1c0>,0.0667,0.9798,0.0945,0.9765,1635796181,0m 10s
"Sequential(
  (0): Conv2d(1, 6, kernel_size=(5, 5), stride=(1, 1), padding=(2, 2))
  (1): ReLU()
  (2): AvgPool2d(kernel_size=2, stride=2, padding=0)
  (3): Conv2d(6, 16, kernel_size=(5, 5), stride=(1, 1))
  (4): ReLU()
  (5): AvgPool2d(kernel_size=2, stride=2, padding=0)
  (6): Flatten(start_dim=1, end_dim=-1)
  (7): Linear(in_features=400, out_features=120, bias=True)
  (8): ReLU()
  (9): Linear(in_features=120, out_features=84, bias=True)
  (10): ReLU()
  (11): Linear(in_features=84, out_features=10, bias=True)
)",pytorch,mnist,6/49,CrossEntropyLoss(),"SGD (
Parameter Group 0
    dampening: 0
    initial_lr: 0.1
    lr: 0.010000000000000002
    momentum: 0.9
    nesterov: False
    weight_decay: 0
)",<torch.optim.lr_scheduler.StepLR object at 0x7f7e6093a1c0>,0.0658,0.9793,0.0866,0.9774,1635796191,0m 10s
"Sequential(
  (0): Conv2d(1, 6, kernel_size=(5, 5), stride=(1, 1), padding=(2, 2))
  (1): ReLU()
  (2): AvgPool2d(kernel_size=2, stride=2, padding=0)
  (3): Conv2d(6, 16, kernel_size=(5, 5), stride=(1, 1))
  (4): ReLU()
  (5): AvgPool2d(kernel_size=2, stride=2, padding=0)
  (6): Flatten(start_dim=1, end_dim=-1)
  (7): Linear(in_features=400, out_features=120, bias=True)
  (8): ReLU()
  (9): Linear(in_features=120, out_features=84, bias=True)
  (10): ReLU()
  (11): Linear(in_features=84, out_features=10, bias=True)
)",pytorch,mnist,7/49,CrossEntropyLoss(),"SGD (
Parameter Group 0
    dampening: 0
    initial_lr: 0.1
    lr: 0.010000000000000002
    momentum: 0.9
    nesterov: False
    weight_decay: 0
)",<torch.optim.lr_scheduler.StepLR object at 0x7f7e6093a1c0>,0.0353,0.9889,0.0564,0.9843,1635796201,0m 10s
"Sequential(
  (0): Conv2d(1, 6, kernel_size=(5, 5), stride=(1, 1), padding=(2, 2))
  (1): ReLU()
  (2): AvgPool2d(kernel_size=2, stride=2, padding=0)
  (3): Conv2d(6, 16, kernel_size=(5, 5), stride=(1, 1))
  (4): ReLU()
  (5): AvgPool2d(kernel_size=2, stride=2, padding=0)
  (6): Flatten(start_dim=1, end_dim=-1)
  (7): Linear(in_features=400, out_features=120, bias=True)
  (8): ReLU()
  (9): Linear(in_features=120, out_features=84, bias=True)
  (10): ReLU()
  (11): Linear(in_features=84, out_features=10, bias=True)
)",pytorch,mnist,8/49,CrossEntropyLoss(),"SGD (
Parameter Group 0
    dampening: 0
    initial_lr: 0.1
    lr: 0.010000000000000002
    momentum: 0.9
    nesterov: False
    weight_decay: 0
)",<torch.optim.lr_scheduler.StepLR object at 0x7f7e6093a1c0>,0.0271,0.9915,0.0547,0.9847,1635796211,0m 10s
"Sequential(
  (0): Conv2d(1, 6, kernel_size=(5, 5), stride=(1, 1), padding=(2, 2))
  (1): ReLU()
  (2): AvgPool2d(kernel_size=2, stride=2, padding=0)
  (3): Conv2d(6, 16, kernel_size=(5, 5), stride=(1, 1))
  (4): ReLU()
  (5): AvgPool2d(kernel_size=2, stride=2, padding=0)
  (6): Flatten(start_dim=1, end_dim=-1)
  (7): Linear(in_features=400, out_features=120, bias=True)
  (8): ReLU()
  (9): Linear(in_features=120, out_features=84, bias=True)
  (10): ReLU()
  (11): Linear(in_features=84, out_features=10, bias=True)
)",pytorch,mnist,9/49,CrossEntropyLoss(),"SGD (
Parameter Group 0
    dampening: 0
    initial_lr: 0.1
    lr: 0.010000000000000002
    momentum: 0.9
    nesterov: False
    weight_decay: 0
)",<torch.optim.lr_scheduler.StepLR object at 0x7f7e6093a1c0>,0.0241,0.9927,0.0545,0.9849,1635796221,0m 10s
"Sequential(
  (0): Conv2d(1, 6, kernel_size=(5, 5), stride=(1, 1), padding=(2, 2))
  (1): ReLU()
  (2): AvgPool2d(kernel_size=2, stride=2, padding=0)
  (3): Conv2d(6, 16, kernel_size=(5, 5), stride=(1, 1))
  (4): ReLU()
  (5): AvgPool2d(kernel_size=2, stride=2, padding=0)
  (6): Flatten(start_dim=1, end_dim=-1)
  (7): Linear(in_features=400, out_features=120, bias=True)
  (8): ReLU()
  (9): Linear(in_features=120, out_features=84, bias=True)
  (10): ReLU()
  (11): Linear(in_features=84, out_features=10, bias=True)
)",pytorch,mnist,10/49,CrossEntropyLoss(),"SGD (
Parameter Group 0
    dampening: 0
    initial_lr: 0.1
    lr: 0.010000000000000002
    momentum: 0.9
    nesterov: False
    weight_decay: 0
)",<torch.optim.lr_scheduler.StepLR object at 0x7f7e6093a1c0>,0.022,0.9934,0.0546,0.9857,1635796232,0m 10s
"Sequential(
  (0): Conv2d(1, 6, kernel_size=(5, 5), stride=(1, 1), padding=(2, 2))
  (1): ReLU()
  (2): AvgPool2d(kernel_size=2, stride=2, padding=0)
  (3): Conv2d(6, 16, kernel_size=(5, 5), stride=(1, 1))
  (4): ReLU()
  (5): AvgPool2d(kernel_size=2, stride=2, padding=0)
  (6): Flatten(start_dim=1, end_dim=-1)
  (7): Linear(in_features=400, out_features=120, bias=True)
  (8): ReLU()
  (9): Linear(in_features=120, out_features=84, bias=True)
  (10): ReLU()
  (11): Linear(in_features=84, out_features=10, bias=True)
)",pytorch,mnist,11/49,CrossEntropyLoss(),"SGD (
Parameter Group 0
    dampening: 0
    initial_lr: 0.1
    lr: 0.010000000000000002
    momentum: 0.9
    nesterov: False
    weight_decay: 0
)",<torch.optim.lr_scheduler.StepLR object at 0x7f7e6093a1c0>,0.0202,0.994,0.0549,0.9856,1635796242,0m 10s
"Sequential(
  (0): Conv2d(1, 6, kernel_size=(5, 5), stride=(1, 1), padding=(2, 2))
  (1): ReLU()
  (2): AvgPool2d(kernel_size=2, stride=2, padding=0)
  (3): Conv2d(6, 16, kernel_size=(5, 5), stride=(1, 1))
  (4): ReLU()
  (5): AvgPool2d(kernel_size=2, stride=2, padding=0)
  (6): Flatten(start_dim=1, end_dim=-1)
  (7): Linear(in_features=400, out_features=120, bias=True)
  (8): ReLU()
  (9): Linear(in_features=120, out_features=84, bias=True)
  (10): ReLU()
  (11): Linear(in_features=84, out_features=10, bias=True)
)",pytorch,mnist,12/49,CrossEntropyLoss(),"SGD (
Parameter Group 0
    dampening: 0
    initial_lr: 0.1
    lr: 0.010000000000000002
    momentum: 0.9
    nesterov: False
    weight_decay: 0
)",<torch.optim.lr_scheduler.StepLR object at 0x7f7e6093a1c0>,0.0188,0.9944,0.0556,0.9856,1635796252,0m 10s
"Sequential(
  (0): Conv2d(1, 6, kernel_size=(5, 5), stride=(1, 1), padding=(2, 2))
  (1): ReLU()
  (2): AvgPool2d(kernel_size=2, stride=2, padding=0)
  (3): Conv2d(6, 16, kernel_size=(5, 5), stride=(1, 1))
  (4): ReLU()
  (5): AvgPool2d(kernel_size=2, stride=2, padding=0)
  (6): Flatten(start_dim=1, end_dim=-1)
  (7): Linear(in_features=400, out_features=120, bias=True)
  (8): ReLU()
  (9): Linear(in_features=120, out_features=84, bias=True)
  (10): ReLU()
  (11): Linear(in_features=84, out_features=10, bias=True)
)",pytorch,mnist,13/49,CrossEntropyLoss(),"SGD (
Parameter Group 0
    dampening: 0
    initial_lr: 0.1
    lr: 0.0010000000000000002
    momentum: 0.9
    nesterov: False
    weight_decay: 0
)",<torch.optim.lr_scheduler.StepLR object at 0x7f7e6093a1c0>,0.0175,0.9947,0.0559,0.9856,1635796262,0m 10s
"Sequential(
  (0): Conv2d(1, 6, kernel_size=(5, 5), stride=(1, 1), padding=(2, 2))
  (1): ReLU()
  (2): AvgPool2d(kernel_size=2, stride=2, padding=0)
  (3): Conv2d(6, 16, kernel_size=(5, 5), stride=(1, 1))
  (4): ReLU()
  (5): AvgPool2d(kernel_size=2, stride=2, padding=0)
  (6): Flatten(start_dim=1, end_dim=-1)
  (7): Linear(in_features=400, out_features=120, bias=True)
  (8): ReLU()
  (9): Linear(in_features=120, out_features=84, bias=True)
  (10): ReLU()
  (11): Linear(in_features=84, out_features=10, bias=True)
)",pytorch,mnist,14/49,CrossEntropyLoss(),"SGD (
Parameter Group 0
    dampening: 0
    initial_lr: 0.1
    lr: 0.0010000000000000002
    momentum: 0.9
    nesterov: False
    weight_decay: 0
)",<torch.optim.lr_scheduler.StepLR object at 0x7f7e6093a1c0>,0.0154,0.9956,0.0553,0.9856,1635796272,0m 10s
"Sequential(
  (0): Conv2d(1, 6, kernel_size=(5, 5), stride=(1, 1), padding=(2, 2))
  (1): ReLU()
  (2): AvgPool2d(kernel_size=2, stride=2, padding=0)
  (3): Conv2d(6, 16, kernel_size=(5, 5), stride=(1, 1))
  (4): ReLU()
  (5): AvgPool2d(kernel_size=2, stride=2, padding=0)
  (6): Flatten(start_dim=1, end_dim=-1)
  (7): Linear(in_features=400, out_features=120, bias=True)
  (8): ReLU()
  (9): Linear(in_features=120, out_features=84, bias=True)
  (10): ReLU()
  (11): Linear(in_features=84, out_features=10, bias=True)
)",pytorch,mnist,15/49,CrossEntropyLoss(),"SGD (
Parameter Group 0
    dampening: 0
    initial_lr: 0.1
    lr: 0.0010000000000000002
    momentum: 0.9
    nesterov: False
    weight_decay: 0
)",<torch.optim.lr_scheduler.StepLR object at 0x7f7e6093a1c0>,0.0151,0.9957,0.0555,0.9857,1635796282,0m 10s
"Sequential(
  (0): Conv2d(1, 6, kernel_size=(5, 5), stride=(1, 1), padding=(2, 2))
  (1): ReLU()
  (2): AvgPool2d(kernel_size=2, stride=2, padding=0)
  (3): Conv2d(6, 16, kernel_size=(5, 5), stride=(1, 1))
  (4): ReLU()
  (5): AvgPool2d(kernel_size=2, stride=2, padding=0)
  (6): Flatten(start_dim=1, end_dim=-1)
  (7): Linear(in_features=400, out_features=120, bias=True)
  (8): ReLU()
  (9): Linear(in_features=120, out_features=84, bias=True)
  (10): ReLU()
  (11): Linear(in_features=84, out_features=10, bias=True)
)",pytorch,mnist,16/49,CrossEntropyLoss(),"SGD (
Parameter Group 0
    dampening: 0
    initial_lr: 0.1
    lr: 0.0010000000000000002
    momentum: 0.9
    nesterov: False
    weight_decay: 0
)",<torch.optim.lr_scheduler.StepLR object at 0x7f7e6093a1c0>,0.0149,0.9958,0.0556,0.9857,1635796292,0m 10s
"Sequential(
  (0): Conv2d(1, 6, kernel_size=(5, 5), stride=(1, 1), padding=(2, 2))
  (1): ReLU()
  (2): AvgPool2d(kernel_size=2, stride=2, padding=0)
  (3): Conv2d(6, 16, kernel_size=(5, 5), stride=(1, 1))
  (4): ReLU()
  (5): AvgPool2d(kernel_size=2, stride=2, padding=0)
  (6): Flatten(start_dim=1, end_dim=-1)
  (7): Linear(in_features=400, out_features=120, bias=True)
  (8): ReLU()
  (9): Linear(in_features=120, out_features=84, bias=True)
  (10): ReLU()
  (11): Linear(in_features=84, out_features=10, bias=True)
)",pytorch,mnist,17/49,CrossEntropyLoss(),"SGD (
Parameter Group 0
    dampening: 0
    initial_lr: 0.1
    lr: 0.0010000000000000002
    momentum: 0.9
    nesterov: False
    weight_decay: 0
)",<torch.optim.lr_scheduler.StepLR object at 0x7f7e6093a1c0>,0.0147,0.9957,0.0557,0.9856,1635796303,0m 11s
"Sequential(
  (0): Conv2d(1, 6, kernel_size=(5, 5), stride=(1, 1), padding=(2, 2))
  (1): ReLU()
  (2): AvgPool2d(kernel_size=2, stride=2, padding=0)
  (3): Conv2d(6, 16, kernel_size=(5, 5), stride=(1, 1))
  (4): ReLU()
  (5): AvgPool2d(kernel_size=2, stride=2, padding=0)
  (6): Flatten(start_dim=1, end_dim=-1)
  (7): Linear(in_features=400, out_features=120, bias=True)
  (8): ReLU()
  (9): Linear(in_features=120, out_features=84, bias=True)
  (10): ReLU()
  (11): Linear(in_features=84, out_features=10, bias=True)
)",pytorch,mnist,18/49,CrossEntropyLoss(),"SGD (
Parameter Group 0
    dampening: 0
    initial_lr: 0.1
    lr: 0.0010000000000000002
    momentum: 0.9
    nesterov: False
    weight_decay: 0
)",<torch.optim.lr_scheduler.StepLR object at 0x7f7e6093a1c0>,0.0146,0.9958,0.0559,0.9856,1635796315,0m 12s
"Sequential(
  (0): Conv2d(1, 6, kernel_size=(5, 5), stride=(1, 1), padding=(2, 2))
  (1): ReLU()
  (2): AvgPool2d(kernel_size=2, stride=2, padding=0)
  (3): Conv2d(6, 16, kernel_size=(5, 5), stride=(1, 1))
  (4): ReLU()
  (5): AvgPool2d(kernel_size=2, stride=2, padding=0)
  (6): Flatten(start_dim=1, end_dim=-1)
  (7): Linear(in_features=400, out_features=120, bias=True)
  (8): ReLU()
  (9): Linear(in_features=120, out_features=84, bias=True)
  (10): ReLU()
  (11): Linear(in_features=84, out_features=10, bias=True)
)",pytorch,mnist,19/49,CrossEntropyLoss(),"SGD (
Parameter Group 0
    dampening: 0
    initial_lr: 0.1
    lr: 0.0010000000000000002
    momentum: 0.9
    nesterov: False
    weight_decay: 0
)",<torch.optim.lr_scheduler.StepLR object at 0x7f7e6093a1c0>,0.0145,0.9959,0.056,0.9855,1635796327,0m 12s
"Sequential(
  (0): Conv2d(1, 6, kernel_size=(5, 5), stride=(1, 1), padding=(2, 2))
  (1): ReLU()
  (2): AvgPool2d(kernel_size=2, stride=2, padding=0)
  (3): Conv2d(6, 16, kernel_size=(5, 5), stride=(1, 1))
  (4): ReLU()
  (5): AvgPool2d(kernel_size=2, stride=2, padding=0)
  (6): Flatten(start_dim=1, end_dim=-1)
  (7): Linear(in_features=400, out_features=120, bias=True)
  (8): ReLU()
  (9): Linear(in_features=120, out_features=84, bias=True)
  (10): ReLU()
  (11): Linear(in_features=84, out_features=10, bias=True)
)",pytorch,mnist,20/49,CrossEntropyLoss(),"SGD (
Parameter Group 0
    dampening: 0
    initial_lr: 0.1
    lr: 0.00010000000000000003
    momentum: 0.9
    nesterov: False
    weight_decay: 0
)",<torch.optim.lr_scheduler.StepLR object at 0x7f7e6093a1c0>,0.0143,0.996,0.0561,0.9855,1635796337,0m 10s
"Sequential(
  (0): Conv2d(1, 6, kernel_size=(5, 5), stride=(1, 1), padding=(2, 2))
  (1): ReLU()
  (2): AvgPool2d(kernel_size=2, stride=2, padding=0)
  (3): Conv2d(6, 16, kernel_size=(5, 5), stride=(1, 1))
  (4): ReLU()
  (5): AvgPool2d(kernel_size=2, stride=2, padding=0)
  (6): Flatten(start_dim=1, end_dim=-1)
  (7): Linear(in_features=400, out_features=120, bias=True)
  (8): ReLU()
  (9): Linear(in_features=120, out_features=84, bias=True)
  (10): ReLU()
  (11): Linear(in_features=84, out_features=10, bias=True)
)",pytorch,mnist,21/49,CrossEntropyLoss(),"SGD (
Parameter Group 0
    dampening: 0
    initial_lr: 0.1
    lr: 0.00010000000000000003
    momentum: 0.9
    nesterov: False
    weight_decay: 0
)",<torch.optim.lr_scheduler.StepLR object at 0x7f7e6093a1c0>,0.0141,0.996,0.0561,0.9855,1635796348,0m 10s
"Sequential(
  (0): Conv2d(1, 6, kernel_size=(5, 5), stride=(1, 1), padding=(2, 2))
  (1): ReLU()
  (2): AvgPool2d(kernel_size=2, stride=2, padding=0)
  (3): Conv2d(6, 16, kernel_size=(5, 5), stride=(1, 1))
  (4): ReLU()
  (5): AvgPool2d(kernel_size=2, stride=2, padding=0)
  (6): Flatten(start_dim=1, end_dim=-1)
  (7): Linear(in_features=400, out_features=120, bias=True)
  (8): ReLU()
  (9): Linear(in_features=120, out_features=84, bias=True)
  (10): ReLU()
  (11): Linear(in_features=84, out_features=10, bias=True)
)",pytorch,mnist,22/49,CrossEntropyLoss(),"SGD (
Parameter Group 0
    dampening: 0
    initial_lr: 0.1
    lr: 0.00010000000000000003
    momentum: 0.9
    nesterov: False
    weight_decay: 0
)",<torch.optim.lr_scheduler.StepLR object at 0x7f7e6093a1c0>,0.0141,0.996,0.0561,0.9855,1635796358,0m 10s
"Sequential(
  (0): Conv2d(1, 6, kernel_size=(5, 5), stride=(1, 1), padding=(2, 2))
  (1): ReLU()
  (2): AvgPool2d(kernel_size=2, stride=2, padding=0)
  (3): Conv2d(6, 16, kernel_size=(5, 5), stride=(1, 1))
  (4): ReLU()
  (5): AvgPool2d(kernel_size=2, stride=2, padding=0)
  (6): Flatten(start_dim=1, end_dim=-1)
  (7): Linear(in_features=400, out_features=120, bias=True)
  (8): ReLU()
  (9): Linear(in_features=120, out_features=84, bias=True)
  (10): ReLU()
  (11): Linear(in_features=84, out_features=10, bias=True)
)",pytorch,mnist,23/49,CrossEntropyLoss(),"SGD (
Parameter Group 0
    dampening: 0
    initial_lr: 0.1
    lr: 0.00010000000000000003
    momentum: 0.9
    nesterov: False
    weight_decay: 0
)",<torch.optim.lr_scheduler.StepLR object at 0x7f7e6093a1c0>,0.014,0.996,0.0561,0.9856,1635796368,0m 10s
"Sequential(
  (0): Conv2d(1, 6, kernel_size=(5, 5), stride=(1, 1), padding=(2, 2))
  (1): ReLU()
  (2): AvgPool2d(kernel_size=2, stride=2, padding=0)
  (3): Conv2d(6, 16, kernel_size=(5, 5), stride=(1, 1))
  (4): ReLU()
  (5): AvgPool2d(kernel_size=2, stride=2, padding=0)
  (6): Flatten(start_dim=1, end_dim=-1)
  (7): Linear(in_features=400, out_features=120, bias=True)
  (8): ReLU()
  (9): Linear(in_features=120, out_features=84, bias=True)
  (10): ReLU()
  (11): Linear(in_features=84, out_features=10, bias=True)
)",pytorch,mnist,24/49,CrossEntropyLoss(),"SGD (
Parameter Group 0
    dampening: 0
    initial_lr: 0.1
    lr: 0.00010000000000000003
    momentum: 0.9
    nesterov: False
    weight_decay: 0
)",<torch.optim.lr_scheduler.StepLR object at 0x7f7e6093a1c0>,0.014,0.996,0.0562,0.9856,1635796378,0m 10s
"Sequential(
  (0): Conv2d(1, 6, kernel_size=(5, 5), stride=(1, 1), padding=(2, 2))
  (1): ReLU()
  (2): AvgPool2d(kernel_size=2, stride=2, padding=0)
  (3): Conv2d(6, 16, kernel_size=(5, 5), stride=(1, 1))
  (4): ReLU()
  (5): AvgPool2d(kernel_size=2, stride=2, padding=0)
  (6): Flatten(start_dim=1, end_dim=-1)
  (7): Linear(in_features=400, out_features=120, bias=True)
  (8): ReLU()
  (9): Linear(in_features=120, out_features=84, bias=True)
  (10): ReLU()
  (11): Linear(in_features=84, out_features=10, bias=True)
)",pytorch,mnist,25/49,CrossEntropyLoss(),"SGD (
Parameter Group 0
    dampening: 0
    initial_lr: 0.1
    lr: 0.00010000000000000003
    momentum: 0.9
    nesterov: False
    weight_decay: 0
)",<torch.optim.lr_scheduler.StepLR object at 0x7f7e6093a1c0>,0.014,0.996,0.0562,0.9856,1635796388,0m 10s
"Sequential(
  (0): Conv2d(1, 6, kernel_size=(5, 5), stride=(1, 1), padding=(2, 2))
  (1): ReLU()
  (2): AvgPool2d(kernel_size=2, stride=2, padding=0)
  (3): Conv2d(6, 16, kernel_size=(5, 5), stride=(1, 1))
  (4): ReLU()
  (5): AvgPool2d(kernel_size=2, stride=2, padding=0)
  (6): Flatten(start_dim=1, end_dim=-1)
  (7): Linear(in_features=400, out_features=120, bias=True)
  (8): ReLU()
  (9): Linear(in_features=120, out_features=84, bias=True)
  (10): ReLU()
  (11): Linear(in_features=84, out_features=10, bias=True)
)",pytorch,mnist,26/49,CrossEntropyLoss(),"SGD (
Parameter Group 0
    dampening: 0
    initial_lr: 0.1
    lr: 0.00010000000000000003
    momentum: 0.9
    nesterov: False
    weight_decay: 0
)",<torch.optim.lr_scheduler.StepLR object at 0x7f7e6093a1c0>,0.014,0.9961,0.0562,0.9856,1635796398,0m 10s
"Sequential(
  (0): Conv2d(1, 6, kernel_size=(5, 5), stride=(1, 1), padding=(2, 2))
  (1): ReLU()
  (2): AvgPool2d(kernel_size=2, stride=2, padding=0)
  (3): Conv2d(6, 16, kernel_size=(5, 5), stride=(1, 1))
  (4): ReLU()
  (5): AvgPool2d(kernel_size=2, stride=2, padding=0)
  (6): Flatten(start_dim=1, end_dim=-1)
  (7): Linear(in_features=400, out_features=120, bias=True)
  (8): ReLU()
  (9): Linear(in_features=120, out_features=84, bias=True)
  (10): ReLU()
  (11): Linear(in_features=84, out_features=10, bias=True)
)",pytorch,mnist,27/49,CrossEntropyLoss(),"SGD (
Parameter Group 0
    dampening: 0
    initial_lr: 0.1
    lr: 1.0000000000000004e-05
    momentum: 0.9
    nesterov: False
    weight_decay: 0
)",<torch.optim.lr_scheduler.StepLR object at 0x7f7e6093a1c0>,0.014,0.9961,0.0562,0.9856,1635796408,0m 10s
"Sequential(
  (0): Conv2d(1, 6, kernel_size=(5, 5), stride=(1, 1), padding=(2, 2))
  (1): ReLU()
  (2): AvgPool2d(kernel_size=2, stride=2, padding=0)
  (3): Conv2d(6, 16, kernel_size=(5, 5), stride=(1, 1))
  (4): ReLU()
  (5): AvgPool2d(kernel_size=2, stride=2, padding=0)
  (6): Flatten(start_dim=1, end_dim=-1)
  (7): Linear(in_features=400, out_features=120, bias=True)
  (8): ReLU()
  (9): Linear(in_features=120, out_features=84, bias=True)
  (10): ReLU()
  (11): Linear(in_features=84, out_features=10, bias=True)
)",pytorch,mnist,28/49,CrossEntropyLoss(),"SGD (
Parameter Group 0
    dampening: 0
    initial_lr: 0.1
    lr: 1.0000000000000004e-05
    momentum: 0.9
    nesterov: False
    weight_decay: 0
)",<torch.optim.lr_scheduler.StepLR object at 0x7f7e6093a1c0>,0.014,0.9961,0.0562,0.9856,1635796419,0m 10s
"Sequential(
  (0): Conv2d(1, 6, kernel_size=(5, 5), stride=(1, 1), padding=(2, 2))
  (1): ReLU()
  (2): AvgPool2d(kernel_size=2, stride=2, padding=0)
  (3): Conv2d(6, 16, kernel_size=(5, 5), stride=(1, 1))
  (4): ReLU()
  (5): AvgPool2d(kernel_size=2, stride=2, padding=0)
  (6): Flatten(start_dim=1, end_dim=-1)
  (7): Linear(in_features=400, out_features=120, bias=True)
  (8): ReLU()
  (9): Linear(in_features=120, out_features=84, bias=True)
  (10): ReLU()
  (11): Linear(in_features=84, out_features=10, bias=True)
)",pytorch,mnist,29/49,CrossEntropyLoss(),"SGD (
Parameter Group 0
    dampening: 0
    initial_lr: 0.1
    lr: 1.0000000000000004e-05
    momentum: 0.9
    nesterov: False
    weight_decay: 0
)",<torch.optim.lr_scheduler.StepLR object at 0x7f7e6093a1c0>,0.014,0.9961,0.0562,0.9856,1635796429,0m 10s
"Sequential(
  (0): Conv2d(1, 6, kernel_size=(5, 5), stride=(1, 1), padding=(2, 2))
  (1): ReLU()
  (2): AvgPool2d(kernel_size=2, stride=2, padding=0)
  (3): Conv2d(6, 16, kernel_size=(5, 5), stride=(1, 1))
  (4): ReLU()
  (5): AvgPool2d(kernel_size=2, stride=2, padding=0)
  (6): Flatten(start_dim=1, end_dim=-1)
  (7): Linear(in_features=400, out_features=120, bias=True)
  (8): ReLU()
  (9): Linear(in_features=120, out_features=84, bias=True)
  (10): ReLU()
  (11): Linear(in_features=84, out_features=10, bias=True)
)",pytorch,mnist,30/49,CrossEntropyLoss(),"SGD (
Parameter Group 0
    dampening: 0
    initial_lr: 0.1
    lr: 1.0000000000000004e-05
    momentum: 0.9
    nesterov: False
    weight_decay: 0
)",<torch.optim.lr_scheduler.StepLR object at 0x7f7e6093a1c0>,0.014,0.9961,0.0562,0.9856,1635796439,0m 10s
"Sequential(
  (0): Conv2d(1, 6, kernel_size=(5, 5), stride=(1, 1), padding=(2, 2))
  (1): ReLU()
  (2): AvgPool2d(kernel_size=2, stride=2, padding=0)
  (3): Conv2d(6, 16, kernel_size=(5, 5), stride=(1, 1))
  (4): ReLU()
  (5): AvgPool2d(kernel_size=2, stride=2, padding=0)
  (6): Flatten(start_dim=1, end_dim=-1)
  (7): Linear(in_features=400, out_features=120, bias=True)
  (8): ReLU()
  (9): Linear(in_features=120, out_features=84, bias=True)
  (10): ReLU()
  (11): Linear(in_features=84, out_features=10, bias=True)
)",pytorch,mnist,31/49,CrossEntropyLoss(),"SGD (
Parameter Group 0
    dampening: 0
    initial_lr: 0.1
    lr: 1.0000000000000004e-05
    momentum: 0.9
    nesterov: False
    weight_decay: 0
)",<torch.optim.lr_scheduler.StepLR object at 0x7f7e6093a1c0>,0.014,0.9961,0.0562,0.9856,1635796449,0m 10s
"Sequential(
  (0): Conv2d(1, 6, kernel_size=(5, 5), stride=(1, 1), padding=(2, 2))
  (1): ReLU()
  (2): AvgPool2d(kernel_size=2, stride=2, padding=0)
  (3): Conv2d(6, 16, kernel_size=(5, 5), stride=(1, 1))
  (4): ReLU()
  (5): AvgPool2d(kernel_size=2, stride=2, padding=0)
  (6): Flatten(start_dim=1, end_dim=-1)
  (7): Linear(in_features=400, out_features=120, bias=True)
  (8): ReLU()
  (9): Linear(in_features=120, out_features=84, bias=True)
  (10): ReLU()
  (11): Linear(in_features=84, out_features=10, bias=True)
)",pytorch,mnist,32/49,CrossEntropyLoss(),"SGD (
Parameter Group 0
    dampening: 0
    initial_lr: 0.1
    lr: 1.0000000000000004e-05
    momentum: 0.9
    nesterov: False
    weight_decay: 0
)",<torch.optim.lr_scheduler.StepLR object at 0x7f7e6093a1c0>,0.014,0.9961,0.0562,0.9856,1635796459,0m 10s
"Sequential(
  (0): Conv2d(1, 6, kernel_size=(5, 5), stride=(1, 1), padding=(2, 2))
  (1): ReLU()
  (2): AvgPool2d(kernel_size=2, stride=2, padding=0)
  (3): Conv2d(6, 16, kernel_size=(5, 5), stride=(1, 1))
  (4): ReLU()
  (5): AvgPool2d(kernel_size=2, stride=2, padding=0)
  (6): Flatten(start_dim=1, end_dim=-1)
  (7): Linear(in_features=400, out_features=120, bias=True)
  (8): ReLU()
  (9): Linear(in_features=120, out_features=84, bias=True)
  (10): ReLU()
  (11): Linear(in_features=84, out_features=10, bias=True)
)",pytorch,mnist,33/49,CrossEntropyLoss(),"SGD (
Parameter Group 0
    dampening: 0
    initial_lr: 0.1
    lr: 1.0000000000000004e-05
    momentum: 0.9
    nesterov: False
    weight_decay: 0
)",<torch.optim.lr_scheduler.StepLR object at 0x7f7e6093a1c0>,0.014,0.9961,0.0562,0.9856,1635796469,0m 10s
"Sequential(
  (0): Conv2d(1, 6, kernel_size=(5, 5), stride=(1, 1), padding=(2, 2))
  (1): ReLU()
  (2): AvgPool2d(kernel_size=2, stride=2, padding=0)
  (3): Conv2d(6, 16, kernel_size=(5, 5), stride=(1, 1))
  (4): ReLU()
  (5): AvgPool2d(kernel_size=2, stride=2, padding=0)
  (6): Flatten(start_dim=1, end_dim=-1)
  (7): Linear(in_features=400, out_features=120, bias=True)
  (8): ReLU()
  (9): Linear(in_features=120, out_features=84, bias=True)
  (10): ReLU()
  (11): Linear(in_features=84, out_features=10, bias=True)
)",pytorch,mnist,34/49,CrossEntropyLoss(),"SGD (
Parameter Group 0
    dampening: 0
    initial_lr: 0.1
    lr: 1.0000000000000004e-06
    momentum: 0.9
    nesterov: False
    weight_decay: 0
)",<torch.optim.lr_scheduler.StepLR object at 0x7f7e6093a1c0>,0.014,0.9961,0.0562,0.9856,1635796479,0m 10s
"Sequential(
  (0): Conv2d(1, 6, kernel_size=(5, 5), stride=(1, 1), padding=(2, 2))
  (1): ReLU()
  (2): AvgPool2d(kernel_size=2, stride=2, padding=0)
  (3): Conv2d(6, 16, kernel_size=(5, 5), stride=(1, 1))
  (4): ReLU()
  (5): AvgPool2d(kernel_size=2, stride=2, padding=0)
  (6): Flatten(start_dim=1, end_dim=-1)
  (7): Linear(in_features=400, out_features=120, bias=True)
  (8): ReLU()
  (9): Linear(in_features=120, out_features=84, bias=True)
  (10): ReLU()
  (11): Linear(in_features=84, out_features=10, bias=True)
)",pytorch,mnist,35/49,CrossEntropyLoss(),"SGD (
Parameter Group 0
    dampening: 0
    initial_lr: 0.1
    lr: 1.0000000000000004e-06
    momentum: 0.9
    nesterov: False
    weight_decay: 0
)",<torch.optim.lr_scheduler.StepLR object at 0x7f7e6093a1c0>,0.014,0.9961,0.0562,0.9856,1635796489,0m 10s
"Sequential(
  (0): Conv2d(1, 6, kernel_size=(5, 5), stride=(1, 1), padding=(2, 2))
  (1): ReLU()
  (2): AvgPool2d(kernel_size=2, stride=2, padding=0)
  (3): Conv2d(6, 16, kernel_size=(5, 5), stride=(1, 1))
  (4): ReLU()
  (5): AvgPool2d(kernel_size=2, stride=2, padding=0)
  (6): Flatten(start_dim=1, end_dim=-1)
  (7): Linear(in_features=400, out_features=120, bias=True)
  (8): ReLU()
  (9): Linear(in_features=120, out_features=84, bias=True)
  (10): ReLU()
  (11): Linear(in_features=84, out_features=10, bias=True)
)",pytorch,mnist,36/49,CrossEntropyLoss(),"SGD (
Parameter Group 0
    dampening: 0
    initial_lr: 0.1
    lr: 1.0000000000000004e-06
    momentum: 0.9
    nesterov: False
    weight_decay: 0
)",<torch.optim.lr_scheduler.StepLR object at 0x7f7e6093a1c0>,0.014,0.9961,0.0562,0.9856,1635796500,0m 10s
"Sequential(
  (0): Conv2d(1, 6, kernel_size=(5, 5), stride=(1, 1), padding=(2, 2))
  (1): ReLU()
  (2): AvgPool2d(kernel_size=2, stride=2, padding=0)
  (3): Conv2d(6, 16, kernel_size=(5, 5), stride=(1, 1))
  (4): ReLU()
  (5): AvgPool2d(kernel_size=2, stride=2, padding=0)
  (6): Flatten(start_dim=1, end_dim=-1)
  (7): Linear(in_features=400, out_features=120, bias=True)
  (8): ReLU()
  (9): Linear(in_features=120, out_features=84, bias=True)
  (10): ReLU()
  (11): Linear(in_features=84, out_features=10, bias=True)
)",pytorch,mnist,37/49,CrossEntropyLoss(),"SGD (
Parameter Group 0
    dampening: 0
    initial_lr: 0.1
    lr: 1.0000000000000004e-06
    momentum: 0.9
    nesterov: False
    weight_decay: 0
)",<torch.optim.lr_scheduler.StepLR object at 0x7f7e6093a1c0>,0.014,0.9961,0.0562,0.9856,1635796510,0m 10s
"Sequential(
  (0): Conv2d(1, 6, kernel_size=(5, 5), stride=(1, 1), padding=(2, 2))
  (1): ReLU()
  (2): AvgPool2d(kernel_size=2, stride=2, padding=0)
  (3): Conv2d(6, 16, kernel_size=(5, 5), stride=(1, 1))
  (4): ReLU()
  (5): AvgPool2d(kernel_size=2, stride=2, padding=0)
  (6): Flatten(start_dim=1, end_dim=-1)
  (7): Linear(in_features=400, out_features=120, bias=True)
  (8): ReLU()
  (9): Linear(in_features=120, out_features=84, bias=True)
  (10): ReLU()
  (11): Linear(in_features=84, out_features=10, bias=True)
)",pytorch,mnist,38/49,CrossEntropyLoss(),"SGD (
Parameter Group 0
    dampening: 0
    initial_lr: 0.1
    lr: 1.0000000000000004e-06
    momentum: 0.9
    nesterov: False
    weight_decay: 0
)",<torch.optim.lr_scheduler.StepLR object at 0x7f7e6093a1c0>,0.014,0.9961,0.0562,0.9856,1635796520,0m 10s
"Sequential(
  (0): Conv2d(1, 6, kernel_size=(5, 5), stride=(1, 1), padding=(2, 2))
  (1): ReLU()
  (2): AvgPool2d(kernel_size=2, stride=2, padding=0)
  (3): Conv2d(6, 16, kernel_size=(5, 5), stride=(1, 1))
  (4): ReLU()
  (5): AvgPool2d(kernel_size=2, stride=2, padding=0)
  (6): Flatten(start_dim=1, end_dim=-1)
  (7): Linear(in_features=400, out_features=120, bias=True)
  (8): ReLU()
  (9): Linear(in_features=120, out_features=84, bias=True)
  (10): ReLU()
  (11): Linear(in_features=84, out_features=10, bias=True)
)",pytorch,mnist,39/49,CrossEntropyLoss(),"SGD (
Parameter Group 0
    dampening: 0
    initial_lr: 0.1
    lr: 1.0000000000000004e-06
    momentum: 0.9
    nesterov: False
    weight_decay: 0
)",<torch.optim.lr_scheduler.StepLR object at 0x7f7e6093a1c0>,0.014,0.9961,0.0562,0.9856,1635796530,0m 10s
"Sequential(
  (0): Conv2d(1, 6, kernel_size=(5, 5), stride=(1, 1), padding=(2, 2))
  (1): ReLU()
  (2): AvgPool2d(kernel_size=2, stride=2, padding=0)
  (3): Conv2d(6, 16, kernel_size=(5, 5), stride=(1, 1))
  (4): ReLU()
  (5): AvgPool2d(kernel_size=2, stride=2, padding=0)
  (6): Flatten(start_dim=1, end_dim=-1)
  (7): Linear(in_features=400, out_features=120, bias=True)
  (8): ReLU()
  (9): Linear(in_features=120, out_features=84, bias=True)
  (10): ReLU()
  (11): Linear(in_features=84, out_features=10, bias=True)
)",pytorch,mnist,40/49,CrossEntropyLoss(),"SGD (
Parameter Group 0
    dampening: 0
    initial_lr: 0.1
    lr: 1.0000000000000004e-06
    momentum: 0.9
    nesterov: False
    weight_decay: 0
)",<torch.optim.lr_scheduler.StepLR object at 0x7f7e6093a1c0>,0.014,0.9961,0.0562,0.9856,1635796540,0m 10s
"Sequential(
  (0): Conv2d(1, 6, kernel_size=(5, 5), stride=(1, 1), padding=(2, 2))
  (1): ReLU()
  (2): AvgPool2d(kernel_size=2, stride=2, padding=0)
  (3): Conv2d(6, 16, kernel_size=(5, 5), stride=(1, 1))
  (4): ReLU()
  (5): AvgPool2d(kernel_size=2, stride=2, padding=0)
  (6): Flatten(start_dim=1, end_dim=-1)
  (7): Linear(in_features=400, out_features=120, bias=True)
  (8): ReLU()
  (9): Linear(in_features=120, out_features=84, bias=True)
  (10): ReLU()
  (11): Linear(in_features=84, out_features=10, bias=True)
)",pytorch,mnist,41/49,CrossEntropyLoss(),"SGD (
Parameter Group 0
    dampening: 0
    initial_lr: 0.1
    lr: 1.0000000000000005e-07
    momentum: 0.9
    nesterov: False
    weight_decay: 0
)",<torch.optim.lr_scheduler.StepLR object at 0x7f7e6093a1c0>,0.014,0.9961,0.0562,0.9856,1635796550,0m 10s
"Sequential(
  (0): Conv2d(1, 6, kernel_size=(5, 5), stride=(1, 1), padding=(2, 2))
  (1): ReLU()
  (2): AvgPool2d(kernel_size=2, stride=2, padding=0)
  (3): Conv2d(6, 16, kernel_size=(5, 5), stride=(1, 1))
  (4): ReLU()
  (5): AvgPool2d(kernel_size=2, stride=2, padding=0)
  (6): Flatten(start_dim=1, end_dim=-1)
  (7): Linear(in_features=400, out_features=120, bias=True)
  (8): ReLU()
  (9): Linear(in_features=120, out_features=84, bias=True)
  (10): ReLU()
  (11): Linear(in_features=84, out_features=10, bias=True)
)",pytorch,mnist,42/49,CrossEntropyLoss(),"SGD (
Parameter Group 0
    dampening: 0
    initial_lr: 0.1
    lr: 1.0000000000000005e-07
    momentum: 0.9
    nesterov: False
    weight_decay: 0
)",<torch.optim.lr_scheduler.StepLR object at 0x7f7e6093a1c0>,0.014,0.9961,0.0562,0.9856,1635796560,0m 10s
"Sequential(
  (0): Conv2d(1, 6, kernel_size=(5, 5), stride=(1, 1), padding=(2, 2))
  (1): ReLU()
  (2): AvgPool2d(kernel_size=2, stride=2, padding=0)
  (3): Conv2d(6, 16, kernel_size=(5, 5), stride=(1, 1))
  (4): ReLU()
  (5): AvgPool2d(kernel_size=2, stride=2, padding=0)
  (6): Flatten(start_dim=1, end_dim=-1)
  (7): Linear(in_features=400, out_features=120, bias=True)
  (8): ReLU()
  (9): Linear(in_features=120, out_features=84, bias=True)
  (10): ReLU()
  (11): Linear(in_features=84, out_features=10, bias=True)
)",pytorch,mnist,43/49,CrossEntropyLoss(),"SGD (
Parameter Group 0
    dampening: 0
    initial_lr: 0.1
    lr: 1.0000000000000005e-07
    momentum: 0.9
    nesterov: False
    weight_decay: 0
)",<torch.optim.lr_scheduler.StepLR object at 0x7f7e6093a1c0>,0.014,0.9961,0.0562,0.9856,1635796571,0m 10s
"Sequential(
  (0): Conv2d(1, 6, kernel_size=(5, 5), stride=(1, 1), padding=(2, 2))
  (1): ReLU()
  (2): AvgPool2d(kernel_size=2, stride=2, padding=0)
  (3): Conv2d(6, 16, kernel_size=(5, 5), stride=(1, 1))
  (4): ReLU()
  (5): AvgPool2d(kernel_size=2, stride=2, padding=0)
  (6): Flatten(start_dim=1, end_dim=-1)
  (7): Linear(in_features=400, out_features=120, bias=True)
  (8): ReLU()
  (9): Linear(in_features=120, out_features=84, bias=True)
  (10): ReLU()
  (11): Linear(in_features=84, out_features=10, bias=True)
)",pytorch,mnist,44/49,CrossEntropyLoss(),"SGD (
Parameter Group 0
    dampening: 0
    initial_lr: 0.1
    lr: 1.0000000000000005e-07
    momentum: 0.9
    nesterov: False
    weight_decay: 0
)",<torch.optim.lr_scheduler.StepLR object at 0x7f7e6093a1c0>,0.014,0.9961,0.0562,0.9856,1635796581,0m 10s
"Sequential(
  (0): Conv2d(1, 6, kernel_size=(5, 5), stride=(1, 1), padding=(2, 2))
  (1): ReLU()
  (2): AvgPool2d(kernel_size=2, stride=2, padding=0)
  (3): Conv2d(6, 16, kernel_size=(5, 5), stride=(1, 1))
  (4): ReLU()
  (5): AvgPool2d(kernel_size=2, stride=2, padding=0)
  (6): Flatten(start_dim=1, end_dim=-1)
  (7): Linear(in_features=400, out_features=120, bias=True)
  (8): ReLU()
  (9): Linear(in_features=120, out_features=84, bias=True)
  (10): ReLU()
  (11): Linear(in_features=84, out_features=10, bias=True)
)",pytorch,mnist,45/49,CrossEntropyLoss(),"SGD (
Parameter Group 0
    dampening: 0
    initial_lr: 0.1
    lr: 1.0000000000000005e-07
    momentum: 0.9
    nesterov: False
    weight_decay: 0
)",<torch.optim.lr_scheduler.StepLR object at 0x7f7e6093a1c0>,0.014,0.9961,0.0562,0.9856,1635796591,0m 10s
"Sequential(
  (0): Conv2d(1, 6, kernel_size=(5, 5), stride=(1, 1), padding=(2, 2))
  (1): ReLU()
  (2): AvgPool2d(kernel_size=2, stride=2, padding=0)
  (3): Conv2d(6, 16, kernel_size=(5, 5), stride=(1, 1))
  (4): ReLU()
  (5): AvgPool2d(kernel_size=2, stride=2, padding=0)
  (6): Flatten(start_dim=1, end_dim=-1)
  (7): Linear(in_features=400, out_features=120, bias=True)
  (8): ReLU()
  (9): Linear(in_features=120, out_features=84, bias=True)
  (10): ReLU()
  (11): Linear(in_features=84, out_features=10, bias=True)
)",pytorch,mnist,46/49,CrossEntropyLoss(),"SGD (
Parameter Group 0
    dampening: 0
    initial_lr: 0.1
    lr: 1.0000000000000005e-07
    momentum: 0.9
    nesterov: False
    weight_decay: 0
)",<torch.optim.lr_scheduler.StepLR object at 0x7f7e6093a1c0>,0.014,0.9961,0.0562,0.9856,1635796601,0m 10s
"Sequential(
  (0): Conv2d(1, 6, kernel_size=(5, 5), stride=(1, 1), padding=(2, 2))
  (1): ReLU()
  (2): AvgPool2d(kernel_size=2, stride=2, padding=0)
  (3): Conv2d(6, 16, kernel_size=(5, 5), stride=(1, 1))
  (4): ReLU()
  (5): AvgPool2d(kernel_size=2, stride=2, padding=0)
  (6): Flatten(start_dim=1, end_dim=-1)
  (7): Linear(in_features=400, out_features=120, bias=True)
  (8): ReLU()
  (9): Linear(in_features=120, out_features=84, bias=True)
  (10): ReLU()
  (11): Linear(in_features=84, out_features=10, bias=True)
)",pytorch,mnist,47/49,CrossEntropyLoss(),"SGD (
Parameter Group 0
    dampening: 0
    initial_lr: 0.1
    lr: 1.0000000000000005e-07
    momentum: 0.9
    nesterov: False
    weight_decay: 0
)",<torch.optim.lr_scheduler.StepLR object at 0x7f7e6093a1c0>,0.014,0.9961,0.0562,0.9856,1635796611,0m 10s
"Sequential(
  (0): Conv2d(1, 6, kernel_size=(5, 5), stride=(1, 1), padding=(2, 2))
  (1): ReLU()
  (2): AvgPool2d(kernel_size=2, stride=2, padding=0)
  (3): Conv2d(6, 16, kernel_size=(5, 5), stride=(1, 1))
  (4): ReLU()
  (5): AvgPool2d(kernel_size=2, stride=2, padding=0)
  (6): Flatten(start_dim=1, end_dim=-1)
  (7): Linear(in_features=400, out_features=120, bias=True)
  (8): ReLU()
  (9): Linear(in_features=120, out_features=84, bias=True)
  (10): ReLU()
  (11): Linear(in_features=84, out_features=10, bias=True)
)",pytorch,mnist,48/49,CrossEntropyLoss(),"SGD (
Parameter Group 0
    dampening: 0
    initial_lr: 0.1
    lr: 1.0000000000000005e-08
    momentum: 0.9
    nesterov: False
    weight_decay: 0
)",<torch.optim.lr_scheduler.StepLR object at 0x7f7e6093a1c0>,0.014,0.9961,0.0562,0.9856,1635796621,0m 10s
"Sequential(
  (0): Conv2d(1, 6, kernel_size=(5, 5), stride=(1, 1), padding=(2, 2))
  (1): ReLU()
  (2): AvgPool2d(kernel_size=2, stride=2, padding=0)
  (3): Conv2d(6, 16, kernel_size=(5, 5), stride=(1, 1))
  (4): ReLU()
  (5): AvgPool2d(kernel_size=2, stride=2, padding=0)
  (6): Flatten(start_dim=1, end_dim=-1)
  (7): Linear(in_features=400, out_features=120, bias=True)
  (8): ReLU()
  (9): Linear(in_features=120, out_features=84, bias=True)
  (10): ReLU()
  (11): Linear(in_features=84, out_features=10, bias=True)
)",pytorch,mnist,49/49,CrossEntropyLoss(),"SGD (
Parameter Group 0
    dampening: 0
    initial_lr: 0.1
    lr: 1.0000000000000005e-08
    momentum: 0.9
    nesterov: False
    weight_decay: 0
)",<torch.optim.lr_scheduler.StepLR object at 0x7f7e6093a1c0>,0.014,0.9961,0.0562,0.9856,1635796631,0m 10s